MODEL/asl_mlp_model.tflite (tflite, 218124 bytes, 8 tensors)

arith.constant f4 [26, 64]
00000000: 83d0 96bd ee7d 353e bcc8 9ebe f57a 57be
00000010: 6d64 48be a099 fabd 79ea 9e3e 48e1 8abe
00000020: 7218 01be 1455 a2bd 0088 b83e ca21 cbbd
00000030: 97ff 973d 424c 213e 3d10 94be e248 c53a
00000040: 7db3 f1bd e77c 453e 68ff 17be 5b00 9dbd
00000050: 24f2 95bd 7bbc b73e 53c3 4e3d ffd5 873e
00000060: 03da 8d3e 59b5 5fbd f811 babe 668f 88be
00000070: aa36 a63d 00ad 27be 7d58 8e3d a36d 98be
00000080: 2dc9 0b3e 144e 573c 06bd 8cbe c9b3 efbd
00000090: 9791 93be ca8d ac3d ccd0 a9bd c012 213c
000000a0: e289 b53e 3594 8abe a047 3d3e 7ca0 04be
000000b0: b407 21be 8f76 533e 6922 4d3e 7b08 5e3e
000000c0: 9533 2dbd dc0b 0fbe 722d 863e 54d6 f23b
000000d0: 39dc 3abe 9514 533e c988 593d 0b63 013e
000000e0: ea2c 13be b570 e2bd c125 a83e 4b1b 8cbd
000000f0: c59f 5fbe c69b 903d 3be6 76be ebc8 dbbd
00000100: 34de bdbd a70b 66be 7d77 b7be 1a61 dfbd
00000110: 6a78 313d 0ecb eabc aaa7 14be b83a 03be
00000120: ce6c b2bc 118e 63bd 44e3 bebd 0748 1dbd
00000130: 19b1 c9bd f7f6 60be 5cdf c33e c40e 57bd
00000140: d839 f5bc cf09 093e e27b 6f3d b244 c43d
00000150: 5f3d 95be 630d c23e f458 6c3d 16cc 86be
00000160: bbfa 16be 7c0a 27be 5c16 b0be 1534 51be
00000170: 64ba 963e a44a 883d 0af9 70be aa18 27be
00000180: 74c3 b63d c421 0f3e 3869 123e cbbf 8b3e
00000190: e2dd febe d91e e9bd d90c 85bd 198a 783e
000001a0: d127 0cbd 5e91 b83d ff3b 21be 75a4 10be
000001b0: 40bb eabd a338 97be 5020 4d3d adbf 99be
000001c0: db52 033e b9da 943e c5ee 66be faa4 5f3e
000001d0: d864 1a3d 976b 9ebe 926d ba3d 6922 21be
000001e0: 8e4b 473e d045 7fbe 3a66 01be a2c8 a73c
000001f0: d0a2 363e febe 593d 31ad c03e c918 a93e
00000200: 4ee4 b0bc eb24 4c3e 5eee 3cbe 070c d6bd
00000210: e8ed 91be 75b7 bbbe c4e5 5cbd b026 c03e
00000220: ea20 d83e 6897 123e 28d4 f8bd 0c39 d4bc
00000230: 39c1 92be ac2f 2cbd 6952 773e 937c 933e
00000240: b2e1 3cbe d575 8dbe 4a3c 463e 5068 0f3e
00000250: 4e03 76bc a65b 233e 6bb9 9dbe bc0b 1fbd
00000260: e356 283a 4614 2e3d 62f5 38be 5b41 8cbe
00000270: ded3 58be 3777 79bd 319f 5f3e 0639 153e
00000280: 00a8 10be 5047 76be 0be3 65be 4960 9f3d
00000290: 870b 7abe 1f42 4abe 75bb 21be a388 a83e
000002a0: 9d82 063b 6317 433e fa51 fdbd 8467 26bd
000002b0: 645b 53bd 7d0a ee3d 09f4 433d f8c3 53be
000002c0: 4806 983e 5afa 96be adfe 7dbe 82ae eabd
000002d0: 65a6 9b3e 36db a5be 870e 6cbd e59a efbd
000002e0: 360b af3e daee 62be bd71 d2bc abb4 97bd
000002f0: e4ad 1ebe cf15 233e 28e5 573e e4d2 a6be
00000300: c384 d0bd 13b2 f33e 5cdd 5abd 217c 01be
00000310: 17d0 06be ae87 b7be 770e 8b3e 2e39 073c
00000320: a547 c93a 8f04 ed3d 935f 0bbe 52a4 cfbd
00000330: cddd 27be 057a 79bd 77cf 47be 83e2 18be
00000340: c3aa 4dbe 6006 58bd 76b1 673e 1778 cf3d
00000350: a7d6 853e 68fb a63d a1a1 8dbe 1886 95be
00000360: 10e9 29bd 7fb7 2fbe 83c9 c2bd 23bf 34be
00000370: 905b 8fbb 306a 39be b510 79be c65b 023e
00000380: cbc9 043d ff50 93be 2d81 bc3b 195f 36be
00000390: b517 8cbe 89c6 65be f4d8 6a3e 4e5f 0cbe
000003a0: 180c 96bd 92f7 853e 6b38 323c 1541 f33d
000003b0: 7a71 d2bc b791 d0bd ba0c 113c b357 43bb
000003c0: 0808 9f3e a3f1 633d ad91 9ebd e8ff 4e3e
000003d0: 70e2 af3e 8827 a13e 68ba 993e 12e4 9bbd
000003e0: 3111 2cbe 9a2a 49be add7 3bbd e42a 41be
000003f0: 89e7 c63b a649 09be 0fb9 1dbd f983 d4be
-0.07363989 0.1772382 -0.31012523 -0.21042998 -0.1956956 -0.12236333 0.31038263 -0.27125
-0.12606981 -0.079263836 0.3604126 -0.09918554 0.07421797 0.15751746 -0.2891864 0.0015051628
-0.11801813 0.19285928 -0.14843524 -0.076660834 -0.07321575 0.35885987 0.050479244 0.26530454
0.27705392 -0.054616306 -0.36341834 -0.26671904 0.08115895 -0.16374588 0.069504716 -0.29771146
0.13650961 0.013141174 -0.27487963 -0.11704213 -0.28822014 0.084254816 -0.08291778 0.0098311305
0.3545676 -0.27066198 0.18484354 -0.12951845 -0.15725595 0.20650695 0.20032658 0.21682923
-0.04228552 -0.13969368 0.26206547 0.007410804 -0.18248071 0.2061332 0.053108964 0.12635438
-0.14372602 -0.110566534 0.32841304 -0.06841143 -0.21838291 0.070609614 -0.24111263 -0.107316814
-0.092708975 -0.22465383 -0.3583335 -0.109071925 0.043327726 -0.028661277 -0.14517084 -0.12815368
-0.021780398 -0.055555407 -0.09320691 -0.03839877 -0.09848232 -0.2196921 0.38256347 -0.052504316
-0.029934809 0.13382648 0.058467753 0.09583415 -0.29148385 0.37900838 0.05770202 -0.2632758
-0.14744084 -0.16312593 -0.3439206 -0.20430024 0.2943908 0.066548616 -0.23532501 -0.16318002
0.089239985 0.13977724 0.1429795 0.27294764 -0.49778658 -0.11382837 -0.06496591 0.2427143
-0.03421766 0.090121016 -0.15745543 -0.14125235 -0.11461496 -0.29535398 0.050079644 -0.3002905
0.12824576 0.29073122 -0.22552021 0.21840277 0.03769383 -0.3094146 0.0910293 -0.15735783
0.19462416 -0.24928975 -0.12636653 0.020481411 0.17835546 0.05316066 0.37632135 0.33026722
-0.02159324 0.19935958 -0.18450305 -0.10451513 -0.2850182 -0.36663404 -0.05393006 0.37529516
0.4221261 0.1431557 -0.121498406 -0.025906108 -0.28663042 -0.04203765 0.2415253 0.2880598
-0.18445471 -0.2762896 0.19358936 0.14004636 -0.015015436 0.1595293 -0.30805525 -0.03882955
0.00064216385 0.042499803 -0.18062356 -0.27393612 -0.21174571 -0.060904708 0.2183807 0.14572534
-0.14126587 -0.24050641 -0.22449891 0.07782037 -0.2441846 -0.19751786 -0.15794165 0.32916746
0.002052463 0.1905189 -0.123691514 -0.040626064 -0.05160083 0.11623094 0.047840152 -0.20680225
0.29692292 -0.29487878 -0.24804182 -0.11459066 0.30400386 -0.32393807 -0.05763104 -0.11699466
0.3418824 -0.22161427 -0.025689 -0.074075066 -0.15496022 0.15926288 0.2108351 -0.32582772
-0.10181572 0.47596797 -0.05343376 -0.12645008 -0.13165317 -0.35845703 0.27159473 0.008253379
0.0015356435 0.11573135 -0.13610677 -0.101387635 -0.16393204 -0.060907383 -0.19512735 -0.14930157
-0.20084672 -0.052740455 0.2262629 0.10130327 0.2614033 0.08153421 -0.27662376 -0.29203868
-0.04148203 -0.17159842 -0.095110916 -0.17651038 -0.004374929 -0.18106914 -0.2432278 0.12730321
0.032419007 -0.28772733 0.0057527036 -0.17809714 -0.27361837 -0.22439016 0.22934324 -0.13708231
-0.073265254 0.26165444 0.010877709 0.11877648 -0.025688875 -0.10184043 0.008853132 -0.0029806911
0.31060815 0.055650365 -0.07742629 0.20214808 0.34352446 0.31475472 0.3002503 -0.0761186
-0.16803433 -0.19645157 -0.04585998 -0.18864018 0.0060700816 -0.13407001 -0.038506564 -0.41506937

arith.constant1 f4 [26]
00000000: aa32 c33f 781c b53f 2e72 bd3f d6f2 0f40
00000010: 956a 0c40 2d2d 1140 c647 0c3e a3f7 2d3f
00000020: 37f2 f73f 8aee fa3f 06ff 33bf a974 c43f
00000030: d45f bd3f 25bb 3740 d75c a540 c859 1f40
00000040: 5661 1540 5c17 8240 deaf 4e40 77b8 4d40
00000050: 9e97 a040 5852 b43f b174 8740 1029 7abf
00000060: cbeb 0440 1942 693f
1.5249836 1.4149313 1.480047 2.2491965 2.1940053 2.2683823 0.13699254 0.6795599
1.9370793 1.9604046 -0.7031101 1.5348102 1.479487 2.8707974 5.167583 2.4898548
2.334066 4.0653515 3.229484 3.2143838 5.018508 1.4087629 4.2329946 -0.97718906
2.0768917 0.9111648

arith.constant2 f4 [64, 128]
00000000: 7e0e 723f 4c84 00bf b18d fbbe 7c97 4dbf
00000010: 2964 30bf 3575 6ebd 0a56 15bf 4185 0c3f
00000020: dcf8 58be d999 25bf f430 923e 4535 cfbe
00000030: 6819 0ebe bb8e c43e b860 163e 6052 bb3e
00000040: efed 8e3e 0406 acbc d26a 28bc 25d7 b9bd
00000050: d596 32be 7c6c 18bf 0938 01bf 9f5c 143d
00000060: b46f 5fbc a5a7 24bf 6bdb 933e ea3b 2dbf
00000070: 2b47 203f 44bb eebe 1359 ee3e 330d 08bd
00000080: 6be2 81bd 332d 00be d1a2 af3d dd7d babc
00000090: 5185 703e 2555 ca3e 167a 85be 850f dfbe
000000a0: 23cd ca3e 094f 99be 5ede 143e 289e bd3e
000000b0: bd1b dabe b597 7c3e fca3 9e3d 57b1 a33d
000000c0: 5e69 18be b1fc 343e fc75 28be b2b5 833e
000000d0: 71d8 023e 0aa0 49be bf22 0abf 6421 fabe
000000e0: ba37 a9be 4ff3 b1be 08b2 ff3e 69d5 903e
000000f0: cc3f 39bd 3a6b 8abd 6e27 14bc 6678 4abe
00000100: 5837 0fbf 8596 963d ad2a 8cbe 3f08 8a3d
00000110: 9c9b 61bd 0a99 e73c 4af4 b4bd eb5a 2bbf
00000120: 2b3e 9d3e 8181 be3e 038a ed3d 3b24 55be
00000130: 51e4 05bf f36b 73bf 4a51 dfbd c2c1 5f3e
00000140: db14 88be ed88 1dbf 9b9b bebf 9a38 e33e
00000150: 238e e33e 523c 5a3c 482d f9be 4214 81bd
00000160: 09c7 0a3f 9f1a 80bd 0fa4 87be 6b3d 7abe
00000170: 1892 86be a6c2 403b 6ca7 a73e 5b24 fabc
00000180: 38a4 7ebe 81a0 663e 03c1 04bf e115 d2be
00000190: 4bf8 a6bd 047d 23be dcb0 8d3e 9c67 64be
000001a0: 5d9a 3ebf 207c 933e 4534 053e 2528 22be
000001b0: e117 c33e cfdb 273e 01db 953d 14c2 28bf
000001c0: e778 b83d 4cc4 8b3e 2edd f9bd e68e b73e
000001d0: 2acb c73d 93aa 4f3f 9166 14bf d488 ea3d
000001e0: bcfa 08bd ae81 81be 07d9 9f3e 4c91 1abd
000001f0: b55f b03e a741 46be d295 a3bc 539d a93e
00000200: ec7f 00bf 4179 fcbe 758e 8e3d 93e1 bbbe
00000210: 8667 f6bd 3ea8 863d b8d0 9abe 6d16 13be
00000220: c6ef 323e 1629 3bbe 9edd 28bf 5254 b4be
00000230: 4843 6cbf 4f82 75bd d362 7c3d 1c91 813e
00000240: 9ded 95be 0311 563e ea70 7dbf ffc2 d83e
00000250: 00f8 ab3d dd7c 19bf 500b 40bf 2e82 9d3d
00000260: 2211 ae3d 6721 1abf 1bf7 59bd ca49 ad3e
00000270: 6f1b a0be 5f6d 22bf 32b6 f1bb 6769 a2be
00000280: 4f6d 803e bf28 423e 5e8f f13e 1dfe f8be
00000290: 9bf6 06be c144 f7be 5947 bbbe 53f8 f7be
000002a0: e3b9 c3be d808 a53d c1cd 763e 1e8e 06bf
000002b0: ee00 aa3d a035 4ebf cb7e 4a3e c50e 813e
000002c0: ee73 813e 4ec5 04bf b1f9 06bf 4950 0d3c
000002d0: a62f 94be 26d3 3abe b338 e13e 040a babd
000002e0: ee01 8d3d d948 093e be07 bdbd 8880 15bc
000002f0: 0dee bebd f726 81be c0e2 a1be abae 80be
00000300: d47e 10bf 5b02 0abf c450 b1be d70b 6bbd
00000310: 2029 adbd cf52 0abe e5d3 053e 6e10 153e
00000320: a32d 27be 58f0 e53d eb43 0abf 26f5 80be
00000330: 5eb3 1b3d fe38 2ebe 78a9 c83e c3a4 40be
00000340: 08ae 683d 0d9c 8abe e402 313e 7d0b 8d3e
00000350: 884f d8be 263d 9cbe 30a6 2abe c601 133f
00000360: d119 afbe e03b 933d 5482 fabe 0d40 4e3e
00000370: 1dfb ffbc 6728 93bf 5ba2 82bd c13d 1d3e
00000380: b866 5cbe fbfe c6bc 2b26 50bf e1a0 9d3c
00000390: 39f6 fe3e fb86 443e 760d f03e a1ce 853e
000003a0: 481f 953e 4853 60be 7ce6 08be d386 78bd
000003b0: 9c5c 09bf 4fa5 5d3f f402 b13d 40dc 33be
000003c0: 6838 903e d273 1ebf f3c1 4dbe 0017 84be
000003d0: 35d8 37bf 961d cf3e cc47 273f c8fd 893c
000003e0: d310 bf3e 9710 04bf ea87 573e b298 043e
000003f0: c707 00bf af2a 263e 99a9 153e 1a39 88be
0.94553363 -0.5020187 -0.4913154 -0.8030927 -0.6890283 -0.058217246 -0.5833441 0.5489083
-0.21188682 -0.6468788 0.28552973 -0.4047033 -0.13876879 0.38390145 0.14685333 0.36586285
0.27915904 -0.020998962 -0.010279374 -0.09074239 -0.1744035 -0.59540534 -0.5047613 0.036221143
-0.013637472 -0.64318305 0.2887834 -0.67669547 0.62608594 -0.46627247 0.46552333 -0.033215713
-0.06342014 -0.12517242 0.08575977 -0.022765094 0.23488356 0.39518085 -0.26069707 -0.43566528
0.39609632 -0.29943112 0.14537951 0.37034726 -0.42599288 0.24667247 0.07746121 0.07992809
-0.14883944 0.17674519 -0.16451257 0.2572456 0.12777878 -0.19689956 -0.5395927 -0.488536
-0.33050328 -0.34755942 0.49940515 0.2828782 -0.045226857 -0.06758733 -0.009042604 -0.19772491
-0.5594382 0.07352928 -0.2737631 0.06739854 -0.05508004 0.028271217 -0.08835657 -0.66935605
0.30711493 0.3720818 0.11598589 -0.20814602 -0.5230151 -0.9508659 -0.109041765 0.21851256
-0.2657841 -0.6153706 -1.4891237 0.4437912 0.4444438 0.013320046 -0.4866736 -0.06302692
0.54209954 -0.062550776 -0.26492354 -0.24437492 -0.26283336 0.0029412895 0.3274492 -0.030534914
-0.24867332 0.22522165 -0.5185701 -0.41032317 -0.08152827 -0.15965658 0.27673995 -0.22305149
-0.7445429 0.28805637 0.1300822 -0.15835626 0.38104156 0.16392444 0.07317162 -0.6592114
0.09007435 0.272982 -0.1220039 0.3585121 0.09755547 0.8111965 -0.57969004 0.11451879
-0.033442244 -0.2529425 0.31220266 -0.037736222 0.3444802 -0.19360982 -0.0199689 0.3312784
-0.50195193 -0.4931126 0.06960765 -0.36695537 -0.12031464 0.065750584 -0.30237365 -0.14364024
0.17474279 -0.18277392 -0.6596316 -0.3522058 -0.92290163 -0.059938725 0.061617684 0.25306022
-0.29282847 0.20904927 -0.9900042 0.4233627 0.083969116 -0.5995615 -0.7501726 0.076908454
0.084993616 -0.6020722 -0.053214174 0.3384536 -0.3127093 -0.6344814 -0.0073764557 -0.3172104
0.25083396 0.18960856 0.47179693 -0.48631373 -0.1318001 -0.48294643 -0.3657787 -0.48431644
-0.38227758 0.080583274 0.24101926 -0.52560604 0.083009586 -0.80550575 0.1977493 0.2520658
0.2528376 -0.51863563 -0.5272475 0.0086250985 -0.28942603 -0.18244609 0.4398857 -0.090839416
0.06885134 0.13406695 -0.09229992 -0.0091248825 -0.09322748 -0.2522504 -0.3161831 -0.2513326
-0.56443524 -0.53909844 -0.34631932 -0.05738434 -0.084551096 -0.13508151 0.13069113 0.14557049
-0.16326003 0.112274826 -0.54009885 -0.25187033 0.038012855 -0.17013928 0.39191794 -0.18812852
0.056806594 -0.27072182 0.17286259 0.27547827 -0.42248178 -0.30515403 -0.16664958 0.5742458
-0.34199384 0.071891546 -0.48927557 0.20141621 -0.03124767 -1.1496705 -0.06378623 0.15355588
-0.21523559 -0.024291506 -0.8130824 0.019241752 0.49797228 0.19192116 0.4688527 0.26134208
0.29125428 -0.2190677 -0.13369173 -0.060675453 -0.53656936 0.86580366 0.086431414 -0.17564487
0.28168035 -0.6189548 -0.20093517 -0.25798798 -0.7181428 0.4045226 0.6534393 0.016844645
0.37317523 -0.51587814 0.21047941 0.12948874 -0.5001187 0.1622722 0.14615478 -0.26606065

arith.constant3 f4 [64]
00000000: e546 5840 d56e a040 0b2c 973f 226b 5840
00000010: 2f8b 1f40 e32e 4140 30f3 8140 91fb 0bbf
00000020: d850 8340 c002 3240 5e9e 2740 58dd 2a40
00000030: 6911 703f 0921 ea3f 123f c440 6940 9a40
00000040: 5b98 e63f 2fda 8d40 3d1a c53f 0a3a 973d
00000050: 4da2 f93f 13a2 c040 e770 3040 3b30 ae40
00000060: 7092 8a40 6269 3c3f 47b0 b43e 2fcd 4940
00000070: 3b65 9440 a218 e63f ffec 5240 f02a 3d3e
00000080: b506 7640 fcdf 8140 fc72 6f40 dd09 de3f
00000090: 646f 9e40 c6fd ab40 6261 b53f 4945 8640
000000a0: 43e6 c83e 76e7 1a40 eeec 1bc0 d3be d83e
000000b0: 7560 a43f 7172 a03f 6f74 8c40 b142 9fbe
000000c0: 78a0 6f40 6b19 ae3f 3a9a a840 ba04 d93f
000000d0: 45a1 3640 12c5 3a40 b02a 8d40 f217 0d40
000000e0: d9d6 6c40 ca07 d7bf f1c6 85bf d6da 0040
000000f0: 050a 1c3e 57da d53f 9892 d23e 286b c240
3.379327 5.0135293 1.1810316 3.3815389 2.49287 3.0184867 4.060936 -0.54680735
4.1036186 2.7814178 2.619041 2.6697598 0.93776566 1.8291332 6.132699 4.8203626
1.8015245 4.4328837 1.5398632 0.07384117 1.9502655 6.0197845 2.756891 5.4433875
4.3303757 0.735983 0.3529074 3.1531484 4.637357 1.7976267 3.295715 0.1847341
3.8441594 4.058592 3.741393 1.734676 4.9510975 5.374728 1.4170344 4.1959577
0.39238176 2.4203773 -2.436336 0.42333087 1.2841936 1.2534925 4.389213 -0.3110557
3.7441692 1.3601507 5.2688265 1.6954567 2.853593 2.9182782 4.411461 2.2045865
3.7006133 -1.6799252 -1.0451337 2.0133567 0.15238197 1.6707257 0.41127467 6.0755806

arith.constant4 f4 [128, 256]
00000000: b04b 80c0 2d76 8dc0 78b4 c7c0 4ed3 c53d
00000010: f8ec 85bf 6cca 03c0 1185 93be dc58 48c0
00000020: a892 923e ae96 3c40 405c ac3e 0091 35be
00000030: 32ac ff3f 142d a2c0 3932 ed3f 4bcf d83e
00000040: 25c3 bbc0 153a b83f 34a7 a540 e056 e43d
00000050: 84b8 e1be 50fe a5c0 d029 8140 7df9 edbf
00000060: 5df0 9140 61ac b9bf 5e58 a83f 167f eabf
00000070: e4ef 223f f203 023f 2fd3 973f 1e42 ebbf
00000080: d054 5040 d8a8 0ebf b498 5d40 a0cf 4abe
00000090: be7b 623f 2ee4 913e f6ad a4bf a6fe 82be
000000a0: b607 ac3f 2b6a 84c0 1b41 38c0 ff9b 17c0
000000b0: 6482 95bf e1b6 81bf 94bf 8ac0 94bd 8f40
000000c0: 9dd8 f4bf 2f50 0b40 3f5d 5740 335c bf3f
000000d0: f51b b23f d6c7 a0bf f740 6440 458b d940
000000e0: c473 b5bf da8f e4c0 7351 843f 8a72 d93f
000000f0: 438c 1040 6a1d 4ec0 d779 e4be e34b 66bf
00000100: ac6d 9a3e 299d a9bf 88ed b7bf 2c8a 25bf
00000110: c50c 1dc0 a8b9 4140 06da cbbf 22b9 eebe
00000120: 13ff c63f 036a f23d 8aa1 b43f 1fb4 96bf
00000130: 134d 3ac0 b5c6 bec0 c980 2140 9c41 653f
00000140: 266d 3e3f 70f2 15c0 9f79 c3be 6e2e 8c40
00000150: f3ca 623e 1e7e 86c0 e013 4e40 4a02 b13e
00000160: 5bdf 813f f385 ce3e e45d 9cc0 466c 5f40
00000170: d733 043e 6777 1cc0 9a48 5640 aa50 8540
00000180: b459 0f40 7989 5640 432c ecc0 8985 8ac0
00000190: 1556 2cc0 6ede edbe c1a2 00c0 774a 323f
000001a0: cd20 233f e6b8 973f 382e b0be bf37 04c0
000001b0: 51e8 8840 9369 fd3e 3a77 8d40 4b36 43bf
000001c0: 2478 2940 7771 0140 68d8 acc0 88c2 86be
000001d0: cb4d 0a40 41da 743f d44e 22c0 2ee0 8040
000001e0: 568e 993e d18e 423f fa2c 45c0 20f1 96c0
000001f0: 6992 cb3f ae22 4cbf 6e7e 58bf 5456 a93e
00000200: 4b9d 5bc0 83f3 0abd 1d82 bb3f 0d47 523e
00000210: 7914 71bd 2124 29bf d889 e840 5d09 91bf
00000220: 9c6e 1bbf 50b4 4640 bbbe f040 edae 7940
00000230: eb04 ffbe 4743 a1bf 12d8 b4be 454c f63f
00000240: 3d36 833f 1ccc 1940 b6f8 7abf af05 25c0
00000250: caf9 2d40 6a72 d5bf 26b8 fbbf 8143 abbe
00000260: ec53 c340 d85a 18c0 92ab af3f c25f 6dc0
00000270: ca6e 0840 5f5d ec3e 1d1a 5940 de59 983f
00000280: 3968 553f f361 ad3e b994 1d40 7da1 453e
00000290: 6564 98bf b9cd 86bf ed12 c5bf 4605 d03f
000002a0: 74ca 5f40 2845 a13f 1e5c 03be 2822 58c0
000002b0: 77eb 823f 279a b1bf f773 c23c 6aa7 4e3f
000002c0: 92f1 6a3f 57aa 9d3f f335 c8c0 a576 20c0
000002d0: e739 b83f 252f cbbf 96c2 a340 42ca 8ac0
000002e0: b6e7 88bf 8e63 ea3e b9a6 2dc0 a641 723f
000002f0: 74de 4fc0 dbf2 8dc0 8f5e 5d3f dd3b 973f
00000300: 4ca5 a5c0 269b 15c0 05bb 413f 44fa 0d3f
00000310: 9384 143f ce39 71c0 6d39 8fbd 852c 8740
00000320: e890 fe40 9d70 0c40 a6fa 1740 3ba3 19c0
00000330: 9c6b 563f 31e2 b040 cceb eebe 669f dd3d
00000340: f423 52bf e314 fb3e b0ad 11c0 7df4 d23f
00000350: 2a00 aebf 173f 6cc0 2429 55bf 98a7 93be
00000360: 8dda 4440 3800 40c0 b0fe 3dc0 512e 8b3f
00000370: a6d4 6540 bc8a 9040 b91f c5c0 e570 d1bf
00000380: 6fe5 0cc0 34fc bd40 5dca a8bf 2019 9240
00000390: 71dd 3b3f 5475 d13f 5616 febf 6410 fabf
000003a0: ba62 25c0 99f8 49be bad6 91bf 5291 ab3f
000003b0: 074c 6e3f 8a5c 20c0 ca08 cd3e 176f 5f40
000003c0: 5f09 9bbf 31b1 f53f 4ab8 163f 29d8 6440
000003d0: 18f8 3a40 4e72 a13e 6d7e 82c0 5a5c 87c0
000003e0: dee1 8140 6fb9 7840 e284 25bf 0204 9f3f
000003f0: 7194 7040 975d e4bf ca84 fd3f 6e2a 1340
-4.009239 -4.4206758 -6.24078 0.09659444 -1.0462942 -2.0592299 -0.2881246 -3.1304235
0.28627515 2.9466968 0.3366413 -0.17731094 1.9974425 -5.0680027 1.8530952 0.42345652
-5.8675714 1.4392725 5.1766605 0.111493826 -0.44086087 -5.187294 4.036354 -1.8591763
4.560591 -1.4505731 1.3151968 -1.8320034 0.63647294 0.5078727 1.1861323 -1.8379552
3.2551765 -0.55726385 3.4624453 -0.19805765 0.88470066 0.284944 -1.2865589 -0.25584906
1.3439853 -4.13796 -2.8789737 -2.3688962 -1.1680417 -1.0133935 -4.335886 4.491892
-1.9128605 2.176769 3.3650663 1.4950012 1.3914782 -1.2560985 3.5664651 6.7982507
-1.4175954 -7.14256 1.0337356 1.698808 2.258561 -3.2205453 -0.44624206 -0.89959544
0.30161798 -1.3251086 -1.4369364 -0.6466396 -2.4539044 3.0269566 -1.592591 -0.4662562
1.5546592 0.118366264 1.4111798 -1.1773719 -2.9109542 -5.961756 2.5234854 0.89553237
0.743853 -2.3429222 -0.38178727 4.3806677 0.22147731 -4.202895 3.219963 0.3457206
1.0146288 0.4033657 -4.8864613 3.4909835 0.129104 -2.4447877 3.3481812 4.1660967
2.23985 3.3521407 -7.380403 -4.3288007 -2.692754 -0.46458763 -2.0099337 0.69644874
0.63721925 1.1853302 -0.34410262 -2.0659025 4.278359 0.4949461 4.420804 -0.7625472
2.6479578 2.0225503 -5.401417 -0.2632029 2.160998 0.9564553 -2.5360613 4.0273657
0.29991406 0.7599917 -3.0808702 -4.716934 1.5904056 -0.79740417 -0.84567916 0.33073676
-3.4314754 -0.033923637 1.4649082 0.20534916 -0.058857415 -0.66070753 7.2668266 -1.1330982
-0.6071565 3.1047554 7.5232825 3.9013016 -0.4980844 -1.2598656 -0.353211 1.9242026
1.0250927 2.4030828 -0.9803575 -2.578472 2.718371 -1.6675541 -1.9665573 -0.3344994
6.1039944 -2.3805447 1.3724234 -3.7089696 2.131762 0.46164986 3.3922188 1.1902425
0.83362156 0.33863792 2.4622023 0.19299884 -1.1905638 -1.0531532 -1.5396401 1.6251609
3.4967318 1.259923 -0.12828109 -3.3770847 1.0228108 -1.3875169 0.023736937 0.80724204
0.9177486 1.2317609 -6.2565856 -2.5072415 1.439267 -1.5873762 5.117503 -4.3371897
-1.0695713 0.4577908 -2.713301 0.9463142 -3.2479525 -4.4358954 0.8647241 1.1815144
-5.176428 -2.3375945 0.75675994 0.5546 0.5801479 -3.769153 -0.06993375 4.2241845
7.9551888 2.1943734 2.3746734 -2.4005878 0.8375795 5.5276113 -0.46664274 0.108214185
-0.8208611 0.49039373 -2.276226 1.6480862 -1.35938 -3.6913507 -0.832659 -0.288388
3.0758393 -3.0000134 -2.96867 1.087351 3.591104 4.5169353 -6.1601224 -1.6362578
-2.2015035 5.9370365 -1.3186756 4.565567 0.7338477 1.6363931 -1.9850566 -1.9536252
-2.5841508 -0.19723739 -1.1393654 1.3403723 0.9308476 -2.5056481 0.40045768 3.4911554
-1.2112235 1.91947 0.5887495 3.5756934 2.9213924 0.3153252 -4.077933 -4.2300234
4.0588217 3.886318 -0.6465589 1.2423098 3.7590601 -1.7841061 1.9806149 2.2994647

arith.constant5 f4 [128]
00000000: a6a0 83be f2bc 0940 ebab 5c3f d659 4b40
00000010: 141f 173f a139 cdbf 9c10 403f 7479 6ebf
00000020: 75d0 893e 12eb b53e f611 8ebf 6a4d 04bf
00000030: 69ec 13bf a38c 22c0 f992 87bf f480 f73c
00000040: 7cbd 913e 400a bd3f 0758 993f cbff e23f
00000050: 0dd5 643f 7318 6240 bb06 6a3f 5e83 f13d
00000060: f3d6 bc3f 3f1d f23e 392f 2fc0 704d a63e
00000070: 9e8a e93f 9047 1bbf 604a a5bf 8898 4b3f
00000080: af86 173f fb2c ab3f a41a 963f ce2a 17bf
00000090: 89c9 b0be 0593 943e 5a93 60bf 25cc 933e
000000a0: aaba 043f a4ca 7c3f bc4f 663f bc93 153e
000000b0: 1fe7 a13f 30c9 89bf 8e5a 573f 65b1 ad3b
000000c0: e31b e7bf de45 de3f 9b5e a6bf f99f 68bd
000000d0: edca 863f b10f d4bf 8ac5 b4be 421e 873c
000000e0: cb4a 0e40 f655 c33f 5b96 07c0 acb9 bd3f
000000f0: b5e6 463f 6d97 24bf 33fd 8ebf 5385 c03f
00000100: 86b2 1a3f c7c0 5c3f 930d b83f 213d 63bd
00000110: 2934 843f eab2 d63e 5077 4640 6315 3d40
00000120: e15a c0bf 7467 69bf a51e 483c 7aee b93f
00000130: 7e40 0140 d0b9 1240 b2c8 9cbf 6328 ae3f
00000140: 700f 023f b1ca 4a40 9f60 cd3f 3022 69be
00000150: 4248 c63f 02cc ae3f 8c03 4b3f 3070 793f
00000160: 5860 9ebe a290 743d cb0f ca3f b83b 9c3f
00000170: 0f6b 1b40 efff f6bf e729 ae3e 6990 b9bf
00000180: 3439 15bf 463a 393d 8f16 953f 093d 773f
00000190: 3a18 743f ee79 ea3e e256 5c3f 9126 ac3f
000001a0: 934f a03f c7a0 f73e c126 8e3f 88d8 073f
000001b0: 570b 38c0 7fc7 2c3f 9016 2840 a826 d03d
000001c0: 9c4c d63e 6a52 30c0 1bdd 193f bcff 28bf
000001d0: 1284 1d3f c369 fabf d0ab 5c3f 44d0 07bd
000001e0: 3523 cd3f 76d6 2f3f 2547 3ac0 546b 4740
000001f0: 8411 2ec0 09b6 4940 ca2a ddbf 9e49 703f
-0.25708503 2.1521573 0.86199826 3.1773582 0.59031796 -1.6033212 0.75025344 -0.9315407
0.26916853 0.35530907 -1.1099231 -0.51680624 -0.5778261 -2.5398338 -1.0591727 0.030212857
0.28464878 1.4768753 1.1979989 1.7734312 0.8938759 3.5327423 0.9141652 0.117926344
1.4753097 0.47287938 -2.7372572 0.32480955 1.8245428 -0.6065607 -1.2913322 0.7952962
0.59189886 1.3373102 1.172688 -0.5904969 -0.3452876 0.29018417 -0.8772484 0.28866687
0.51847327 0.98746705 0.89965415 0.14607137 1.2648658 -1.0764523 0.8412255 0.005300688
-1.8055385 1.7365072 -1.2997621 -0.056793187 1.0530678 -1.6567289 -0.3530696 0.01649392
2.223315 1.5260608 -2.118552 1.4822288 0.7769578 -0.6429356 -1.117102 1.5040687
0.60428655 0.86231655 1.4379143 -0.05547822 1.0328418 0.41933376 3.1010323 2.9544303
-1.5027734 -0.9117348 0.0122143375 1.4525902 2.0195613 2.292591 -1.2248747 1.3606075
0.50804806 3.1686213 1.6045111 -0.22766948 1.5490801 1.3656008 0.7930229 0.9743681
-0.3093288 0.059708245 1.578607 1.2205725 2.4284093 -1.9296855 0.34016344 -1.4497195
-0.5829041 0.04522159 1.1647509 0.9657751 0.95349467 0.4579615 0.8607007 1.344927
1.2524284 0.4836485 1.1105577 0.53064775 -2.8756921 0.67491907 2.626377 0.10163623
0.41855323 -2.7550302 0.60103005 -0.6601522 0.6152965 -1.9563526 0.86199665 -0.033157602
1.6026369 0.68686616 -2.9105923 3.1159258 -2.719819 3.1517355 -1.7278683 0.9386233

arith.constant6 f4 [256]
00000000: 5e3e 6f3c 0000 0000 441a e33b 4ba0 053a
00000010: 498e da3c eb67 053a 0000 0000 30fe fbbb
00000020: 9fb6 4b3d 5f93 16bb a8ea f53c 0000 0000
00000030: 4616 373d 0000 0000 e791 a3bb 568c 05bc
00000040: 0000 0000 13d9 eb3d 5537 3aba aed0 27bb
00000050: e478 7fbc da28 5d3d 0000 0000 abba 1e3e
00000060: 0000 0000 0000 0000 0000 0000 0000 0000
00000070: 3ad3 a9bc 5597 5cbc 5530 de3c 0a27 c43d
00000080: 0c37 b9bc d7f3 9b3c 0000 0000 e6ea 433e
00000090: aada 76bc 0000 0000 299d 613d 4738 92b9
000000a0: 251f 033d 77b4 f93b 896d c63c 0000 0000
000000b0: 0000 0000 e1e9 f93d fc46 8abc c26c b3bb
000000c0: 6710 a9bc 0000 0000 ceee 8e3d 5840 aa3b
000000d0: 2827 a43d 8185 993d 54ca 21bc 4f6a cb3d
000000e0: 6bd5 433c aa5e debb 3c51 37ba 0000 0000
000000f0: ab34 80bc 0000 0000 71c7 bd3b 0000 0000
00000100: 5245 2a3e 01e3 bbbb 0000 0000 da33 c33d
00000110: 7d22 b6bb 9d18 013c 1b5f 463b 3d19 223d
00000120: 7ee5 103c 99c7 18bc b872 43bc 0000 0000
00000130: a35a 3d3d a9a1 5a3b b61d 94ba 6bac b13c
00000140: 0000 0000 8842 8abc 0000 0000 abce db3a
00000150: 0000 0000 0000 0000 4873 0cbc 210e 90bb
00000160: b8a1 283b 9166 33bc bbd2 1dbc 0000 0000
00000170: 79a2 2b3d 0000 0000 0000 0000 f214 73bc
00000180: 8c8f d1bb 0000 0000 f8d4 2d3d 0981 6e3c
00000190: 0e8a c5ba 6100 e9bb 3509 d1bc 0000 0000
000001a0: 8a5a 4fbc 0000 0000 320c 6abc 2f79 3abc
000001b0: 0000 0000 f613 13bc 7a4f fdbb 68c0 33bc
000001c0: 0000 0000 abcd b6bb e7ea e83d 4b3e 54bc
000001d0: 8187 523d 41ce 9c3d b2cf 343d ff08 b73c
000001e0: 98f7 bd3c d12f ffbc 6bc2 893c 20b1 adbb
000001f0: 0000 0000 0000 0000 0000 0000 4667 49bb
00000200: 0000 0000 81d9 063e 17e7 01bc 0000 0000
00000210: 3ecf cb3d 3ba3 04bc 0000 0000 7f5d 733d
00000220: d4ee 713c 6454 98bc 0000 0000 4e43 9e3d
00000230: de37 9a3c 0000 0000 0000 0000 d135 dcbb
00000240: d80f c5bc c732 533d 51b8 c13a 0000 0000
00000250: 974f b63c 0000 0000 0000 0000 0000 0000
00000260: 0000 0000 8c08 b73d 736b 163e 0000 0000
00000270: 3254 abbb 2a81 5bbc af1f 4dbb aa3c 51bd
00000280: 3ed7 b23c dc5d 95bb 3d73 3ebc 8014 37bc
00000290: 87e1 d2bb 0000 0000 0000 0000 22fc 903d
000002a0: 98da 06bd 3e46 943d adc5 9bbd a804 b73b
000002b0: d426 053e e215 6abc 7379 06bc 95fe 323d
000002c0: c287 0dbc a08a 87bb 4512 39bc bafa d93b
000002d0: 8ac9 93bc c926 e0bc f24f 02bc c97e c43b
000002e0: d472 87bc db79 0bbc f295 af3b 0000 0000
000002f0: e38f 0a3d 0000 0000 16ba 293c 1c11 853c
00000300: f585 2ebb e472 983c 0000 0000 0000 0000
00000310: ae64 54bb b863 023d 0000 0000 1288 55bc
00000320: c61a a5bb 169e fcbb fea6 873c c9ff 1f3c
00000330: 0000 0000 2510 493d 0000 0000 d7b3 a33c
00000340: 0000 0000 0000 0000 22af 0cbc 3dd8 d8bb
00000350: 6e43 d23d 0000 0000 696d ddbc c0fd 883d
00000360: dc2c 543a 4d83 88bc 922e 16bb 98eb c7bc
00000370: 0000 0000 0000 0000 53e1 6dbb e3ba 9e3c
00000380: 0000 0000 213a 17bc a5dd fc3c 7926 b6bb
00000390: c924 553e 5b23 973d 0000 0000 0000 0000
000003a0: 8d36 ae3c 3a22 9a3c 0000 0000 4e39 cb3c
000003b0: bf10 babb b071 963c 825d 04bc 0000 0000
000003c0: cedf 9c3c e63f 2d3d 0000 0000 d076 c13c
000003d0: a0b4 9abc 989c 413e aec2 cebb 3374 853d
000003e0: 12f0 78bb 9f9e 7bbc 0000 0000 bdc1 8fbc
000003f0: cab9 c4bb 0000 0000 194e 28bc d37f 6a3d
0.014602272 0.0 0.0069306213 0.0005097433 0.026679175 0.00050890323 0.0 -0.0076902136
0.049734708 -0.0022976024 0.03001912 0.0 0.044698976 0.0 -0.004991758 -0.0081511345
0.0 0.11516013 -0.0007103582 -0.002560656 -0.015592787 0.053994037 0.0 0.15500896
0.0 0.0 0.0 0.0 -0.020730603 -0.013463815 0.027122656 0.095777586
-0.022609256 0.01903717 0.0 0.19132575 -0.015066782 0.0 0.05508152 -0.0002788922
0.032012124 0.00762039 0.024222152 0.0 0.0 0.12202812 -0.016879551 -0.0054756114
-0.020637704 0.0 0.06979142 0.0051956587 0.08015281 0.07496167 -0.009874899 0.09932386
0.011952738 -0.006786187 -0.0006993001 0.0 -0.015650114 0.0 0.0057915975 0.0
0.16628006 -0.005733848 0.0 0.09531374 -0.0055583105 0.007879403 0.003026909 0.03957485
0.008843778 -0.009324932 -0.011929207 0.0 0.046229016 0.0033360517 -0.0011300358 0.02168866
0.0 -0.016877428 0.0 0.0016769966 0.0 0.0 -0.008572407 -0.0043962155
0.0025731158 -0.010949747 -0.009632762 0.0 0.041902993 0.0 0.0 -0.014836537
-0.006395286 0.0 0.04243943 0.014557132 -0.0015071051 -0.007110641 -0.025517086 0.0
-0.012655864 0.0 -0.014285134 -0.0113814315 0.0 -0.008976927 -0.0077304216 -0.010971166
0.0 -0.0055787168 0.11372929 -0.012954305 0.051398758 0.07656527 0.044143386 0.022343157
0.023189351 -0.03115073 0.016816339 -0.005300656 0.0 0.0 0.0 -0.0030731722
0.0 0.13168909 -0.007928631 0.0 0.09951638 -0.008095558 0.0 0.059415337
0.014766414 -0.018594928 0.0 0.07727681 0.018825468 0.0 0.0 -0.0067202826
-0.024055406 0.051562097 0.0014779662 0.0 0.022254748 0.0 0.0 0.0
0.0 0.08937177 0.14689426 0.0 -0.0052285427 -0.013397494 -0.0031299402 -0.051083244
0.021831151 -0.004558308 -0.011624155 -0.011174321 -0.0064355764 0.0 0.0 0.070793405
-0.03292331 0.0723996 -0.07606063 0.005585272 0.13003093 -0.014287444 -0.008207667 0.04369982
-0.008638324 -0.0041363984 -0.01129586 0.0066522034 -0.018040437 -0.027362244 -0.007953631 0.0059965593
-0.016534247 -0.008512939 0.005358451 0.0 0.033828627 0.0 0.010359308 0.01624351
-0.0026630138 0.018609472 0.0 0.0 -0.0032408643 0.03183338 0.0 -0.01303293
-0.005038592 -0.007709275 0.01655912 0.009765574 0.0 0.049087662 0.0 0.019983215
0.0 0.0 -0.008586677 -0.0066175745 0.102667674 0.0 -0.02702971 0.06689024
0.0008093843 -0.016664172 -0.0022915942 -0.024404332 0.0 0.0 -0.0036297634 0.019376224
0.0 -0.009230168 0.030867407 -0.0055587855 0.20814814 0.073797904 0.0 0.0
0.021266246 0.018815149 0.0 0.024807598 -0.005678266 0.018364757 -0.008078935 0.0
0.019149687 0.042297266 0.0 0.023616225 -0.018884957 0.18907392 -0.0063098287 0.06516304
-0.003798489 -0.015357642 0.0 -0.017548436 -0.006003593 0.0 -0.010272526 0.05725081

sequential_1/dense_1/MatMul f4 [256, 42]
00000000: fd62 cd3d c2b7 ac3c 50c1 2dbc ea8b 17bd
00000010: f21b 0bbe a1e4 0bbd 4009 703d 529a 373d
00000020: 9b57 d1bd 3147 993d 6e22 4e3c 6d19 79bd
00000030: c6b4 893d ec37 09bd cb89 b3bb 572c 06be
00000040: 0cc3 c73d fe94 fa3d 3b1e 26be a33d a93d
00000050: f35e 9a3d c8bb 18bc 00f0 98bd fc41 36bd
00000060: bf20 b53c a6b5 bf3a 40f3 57be 74f9 7f3d
00000070: d118 40bd a6a7 ecbd d9ff 34bd 2ea5 e43c
00000080: f0f3 053d 6da7 2b3d d5a3 75bd f952 9f3d
00000090: 7302 383d 2926 d2bd 58e4 d13d 6321 05be
000000a0: 4385 d73d edee 23be 1028 b03d bd5a 02be
000000b0: 08b7 a5bc 201a 90bb 98c2 03be 2c72 af3d
000000c0: 251f 0ebe 484e fe3c 806a 5b3b 28b1 8c3c
000000d0: 44a8 dfbd 0642 c7bd abf0 02be 748d debc
000000e0: 7eec 99bd c3a9 013e 0df5 01be 464a 0dbe
000000f0: 0cf3 b9bd 32f2 c53d 8827 2a3d e012 c23b
00000100: bca6 bb3d 34ee 213d 406e 6fbb 6247 f9bd
00000110: 2cfd 97bd 80b2 c93b e798 08be ff28 113e
00000120: 80b1 76bb c1a7 003e 28af 1c3d 40f2 043c
00000130: 667d 963d 1040 0abc 0204 76bd a2a5 cc3d
00000140: 0a0e fa3d a05f cc3b 69ea 06be d362 8dbd
00000150: f025 b2bb 44e4 68bd 8f31 a33c 1771 b53c
00000160: de41 c5bb a22f 0e3e eb11 ffbd c6c0 da3d
00000170: 4553 29bd 6e7a 25be 1bb1 76bd b916 d337
00000180: 06a5 b73d a98f 8abd 740b 473e d396 9dbd
00000190: f314 463e c56a 7c3c d620 cf3c 2939 113e
000001a0: d835 13be f978 b3bd 1cb4 d8bd b62b 94bd
000001b0: fc5a 1ebe deab 903d 567b 123d cd7f d3bd
000001c0: c940 ddbc f551 b83d ca20 93bb c24c 833d
000001d0: bc4b 4fbb 667c c63d c074 0abc 9ffe 11be
000001e0: 44bb 23bd 8f93 7cbd 650a 78bd 8abc 373a
000001f0: 9643 923c 05eb 28bd 0dcf 96bd f2db 523d
00000200: ccbf cebc b0fc ecbc 3752 6fbd 1851 a53d
00000210: 667f 2a3e 8f54 1c3e 9fb6 993d 62bc 8fbd
00000220: 31bc 16be 6163 9f3d 4db2 2ebe 46b5 e93c
00000230: 6875 05be 9744 3dbe aee2 0cbc f6e8 c73c
00000240: 0e6b 933d e733 77bd 9570 c43d 182c 7fbd
00000250: 582b d6bd 2adc efbd 2b12 853d 25be 8f3d
00000260: 96cb 29bd 321f f2bd c800 f4bc 5bf9 3f3d
00000270: f2dd 28be 65c5 913d 3738 c83d d486 d63d
00000280: ffce 0e3d 6823 21be f0e1 c73d b6df 3e3d
00000290: d2b2 b5bd 50fd c73c c986 9a3d a071 91bd
000002a0: 3cb2 d43c f0c8 66bc 7527 793d 0621 94bd
000002b0: 938f 163d 5417 9d3d 9f0e e03c 0a38 4a3d
000002c0: 6fe3 7bbe 20e2 efbd 8eb6 123d c8a5 9abc
000002d0: b71d 14be 9e1a f2bd 49f8 93bd 7783 0c3d
000002e0: 67a7 59be 68b7 64bd 83f2 83bd 16d3 9b3c
000002f0: 8e1c c73d 8858 cebd cf35 083e dba1 81bd
00000300: 8ea8 ea3d 0b25 5c3d 4a69 0ebe ff0e 893d
00000310: c82b d43c 3625 ca3a b7c4 b63d 1013 0d3e
00000320: 2f3a c8bd 3459 f3bc 948d 6c3d c2d4 f9bd
00000330: a419 27be eb46 663d c05e 74bd a9f1 f53c
00000340: 5f3c 843d 8504 7f3d cb46 2d3d 4fa3 acbb
00000350: 95e5 04be 19ab e83d f302 ce3d 988d e0bd
00000360: 73c7 aabd 552b 6e3d 6ca6 c8bc 009d be3c
00000370: c3ec 023e 992c acbd ae9d c23d 829a 123d
00000380: 2b00 b83c 402f 88bc 56df fcbd 059b 083e
00000390: 46a5 0cbe 0496 05be 06f6 e33d e71c 04be
000003a0: af32 0abe aa23 b93d ffe7 cdbc 3d03 10bd
000003b0: a470 ac3d d0f1 78bc 16b1 c43d 3489 99bd
000003c0: cf36 cebd a26c 46bd 58e8 e7bd ab6f 833c
000003d0: 14b1 a23d 593a e73b dd59 773c ddd6 22bc
000003e0: 2d28 4a3d 0f6d 4fbd 3483 a3bd a51d b5bd
000003f0: b156 0fbe aed1 9cbd 9220 f0bd 409d d4bd
0.10028646 0.021083716 -0.010605171 -0.036998667 -0.13584879 -0.034153584 0.05860257 0.044824906
-0.102217875 0.07484282 0.012581451 -0.060815264 0.06723933 -0.033500597 -0.0054790727 -0.13102852
0.09753999 0.12235449 -0.1622247 0.082637094 0.075376414 -0.009322114 -0.07467651 -0.04449652
0.022110341 0.0014626279 -0.21088886 0.062493756 -0.046898667 -0.11555414 -0.044189308 0.027910795
0.03270334 0.041907717 -0.059970696 0.07779498 0.04492421 -0.10261185 0.10248631 -0.13001017
0.105234645 -0.16009112 0.08601391 -0.12729926 -0.020228878 -0.0043976456 -0.128672 0.085666984
-0.13879068 0.031043187 0.0033480227 0.017174318 -0.10920766 -0.0972939 -0.1278712 -0.02716706
-0.075158104 0.12662415 -0.12691136 -0.13797864 -0.09079561 0.09665336 0.041541606 0.00592266
0.091626614 0.03953381 -0.003653422 -0.12171818 -0.074213356 0.006155312 -0.13339578 0.14175795
-0.003764242 0.12563993 0.03825298 0.0081143975 0.073481366 -0.008438125 -0.060062416 0.099925295
0.12209709 0.0062369853 -0.13175358 -0.06903615 -0.0054366514 -0.056858316 0.019921092 0.022148652
-0.006019815 0.13885358 -0.124545895 0.106813 -0.041339178 -0.16159984 -0.060227495 2.5163741e-05
0.089670226 -0.06765682 0.19437963 -0.07694783 0.19343929 0.015406315 0.025284212 0.14181961
-0.14376009 -0.08763308 -0.10581228 -0.072349 -0.15464395 0.07064031 0.035762154 -0.103271104
-0.027008431 0.09000007 -0.0044899927 0.06411125 -0.0031630835 0.09691696 -0.008450687 -0.14257286
-0.039973512 -0.06166416 -0.060556788 0.00070089905 0.017854493 -0.041239757 -0.073637106 0.051479287
-0.02523794 -0.028929085 -0.058428016 0.08072108 0.16650161 0.15266632 0.07505535 -0.07018353
-0.14720227 0.07782627 -0.17060204 0.02852882 -0.13033068 -0.18483196 -0.0085989665 0.024403077
0.071981534 -0.060352232 0.09591786 -0.06229791 -0.10457486 -0.11711915 0.06497606 0.07018689
-0.04145392 -0.11822356 -0.029785529 0.046868663 -0.16490915 0.07117728 0.09776347 0.10474935
0.034865376 -0.15736163 0.09759891 0.046600066 -0.08871998 0.024412781 0.075452395 -0.071017504
0.025963895 -0.014085993 0.060828645 -0.07232861 0.036758017 0.07670465 0.027350722 0.04936985
-0.24598478 -0.11713052 0.03581863 -0.018877879 -0.1446446 -0.11821483 -0.07225091 0.034305062
-0.21255265 -0.055838972 -0.0644274 0.019021552 0.09722243 -0.1007548 0.13301776 -0.063296996
0.114579305 0.053746264 -0.13907352 0.066923134 0.025899783 0.0015422467 0.08924239 0.13776803
-0.09776723 -0.029705621 0.057752207 -0.121987835 -0.16318375 0.056219976 -0.059660673 0.03002246
0.06456827 0.06226017 0.04230384 -0.0052684913 -0.12978204 0.11360759 0.10059156 -0.10964507
-0.08338823 0.058146793 -0.024493419 0.023268223 0.1278563 -0.08406944 0.09502731 0.03579188
0.022461018 -0.016624093 -0.123472854 0.13340385 -0.13734922 -0.13045508 0.111309096 -0.1290165
-0.13495897 0.090400055 -0.025135038 -0.03515934 0.08419922 -0.015194371 0.09604089 -0.074968725
-0.10069048 -0.048443444 -0.11323613 0.016044458 0.07943931 0.007056516 0.015097109 -0.009938923
0.04935472 -0.050641116 -0.079840094 -0.08843545 -0.13997914 -0.07657181 -0.11724962 -0.103815556
