MODEL/gesture_model.tflite (tflite, 976880 bytes, 15 tensors)

arith.constant3 f4 [4, 32]
-0.34587324 -0.34233573 -0.18910673 0.07262942 0.20374525 -0.121421084 0.14215045 0.3697649
-0.13330172 0.112094924 -0.07444191 0.37951142 -0.008489325 0.19792104 0.016809799 0.22670157
-0.134926 0.08435708 0.26292077 0.35413626 -0.053363327 -0.16673337 -0.07232479 -0.00895477
0.053305738 -0.22223276 -0.16386694 0.40423322 0.3266502 0.4143777 0.1375271 0.2470644
0.09670248 -0.16509539 0.055162456 -0.08900344 -0.24571517 -0.124180734 -0.28435224 -0.22258976
-0.2332727 0.22089434 0.030132772 -0.08816536 0.28843388 0.18699518 -0.24036935 -0.27238098
0.12143768 0.078689896 -0.1110358 0.035095975 0.2371679 0.40510112 -0.2245035 -0.06861669
0.31735525 -0.06341938 -0.36976817 -0.30549878 -0.39475268 -0.09068917 -0.20033248 -0.3461333
0.051373474 -0.17935392 -0.022681126 0.101091586 0.15304807 -0.13779043 0.40634274 0.19069505
-0.024409547 0.014079268 -0.2332868 -0.321785 -0.13393976 -0.14198837 -0.27887884 0.16415045
-0.21319282 0.38734898 -0.13480018 0.27690417 0.2500147 0.16177739 0.16001675 -0.30106926
-0.15209557 -0.38815656 -0.1592114 0.114857726 0.33373892 -0.13490477 0.31450397 0.37075
0.34977034 0.045436002 -0.39075094 0.38814285 -0.13400482 -0.025597459 -0.08137372 0.31047884
-0.16574608 -0.32975993 -0.35954347 0.18483245 0.22457837 -0.23817624 0.38759026 0.38776278
0.28594595 0.34303355 0.38566715 0.16673087 -0.24715686 -0.28023374 0.34377676 -0.22567794
0.012963636 -0.045151386 -0.22067553 0.08952542 -0.22326663 -0.0031773506 0.13440637 0.3836216
00000000: 4c16 b1be a146 afbe 32a5 41be bcbe 943d
00000010: 98a2 503e 9eab f8bd e38f 113e d351 bd3e
00000020: 3f80 08be 0692 e53d 0075 98bd 524f c23e
00000030: cf16 0bbc d0ab 4a3e b4b4 893c 7524 683e
00000040: 0b2a 0abe 68c3 ac3d 8d9d 863e 5951 b53e
00000050: 8193 5abd 27bc 2abe 051f 94bd 07b7 12bc
00000060: 1e57 5a3d fc90 63be bccc 27be a8f7 ce3e
00000070: b23e a73e 5029 d43e e7d3 0c3e 73fe 7c3e
00000080: f30b c63d c40e 29be 07f2 613d 7047 b6bd
00000090: c29c 7bbe 7852 febd 9e96 91be 92ee 63be
000000a0: 0adf 6ebe 2032 623e 01d9 f63c 0a90 b4bd
000000b0: 9bad 933e aa7b 3f3e 6223 76be 8575 8bbe
000000c0: 52b4 f83d 2b28 a13d bd66 e3bd ccc0 0f3d
000000d0: 24dc 723e 6a69 cf3e 3fe4 65be e886 8cbd
000000e0: 637c a23e 05e2 81bd 4152 bdbe 566a 9cbe
000000f0: 061d cabe 3ebb b9bd f523 4dbe 6238 b1be
00000100: fe6c 523d 8ea8 37be c5cd b9bc 1b09 cf3d
00000110: a2b8 1c3e ef18 0dbe 280c d03e 9045 433e
00000120: 88f6 c7bc bbac 663c bce2 6ebe 01c1 a4be
00000130: 8127 09be 6665 11be 35c9 8ebe 0e17 283e
00000140: 384f 5abe 9b52 c63e 0f09 0abe 62c6 8d3e
00000150: ed01 803e f9a8 253e 6edb 233e c025 9abe
00000160: f1be 1bbe 75bc c6be 5008 23be 873a eb3d
00000170: d4df aa3e 7a24 0abe aa06 a13e f2d2 bd3e
00000180: 1915 b33e 1a1b 3a3d 8210 c8be a9ba c63e
00000190: 8f38 09be c3b1 d1bc 44a7 a6bd 15f7 9e3e
000001a0: 57b9 29be 4bd6 a8be 1516 b8be b844 3d3e
000001b0: dff7 653e 79e4 73be 3b72 c63e d888 c63e
000001c0: 8267 923e 18a2 af3e 2a76 c53e 7fbb 2a3e
000001d0: b016 7dbe cc7a 8fbe 8203 b03e 1e18 67be
000001e0: 6e65 543c a9f0 38bd c4f8 61be 1a59 b73d
000001f0: 02a0 64be 193b 50bb d3a1 093e 0d6a c43e

arith.constant4 f4 [32, 64]
0.04806138 -0.001774195 0.028001767 0.05577435 -0.02606927 -0.20420049 0.04517556 0.24226193
0.08184844 0.18825927 -0.06290122 0.18001588 0.08038673 0.088790804 -0.16853605 -0.12913895
-0.09431232 0.22136989 0.03976799 -0.015248939 0.1151811 0.14978361 0.062139917 0.17283368
0.15484022 -0.218795 -0.09815822 -0.089186504 0.22401978 -0.25279537 0.259224 -0.1676254
-0.16400969 -0.112311475 -0.18374784 0.2650169 -0.0807788 0.20467535 -0.16950496 0.0559118
-0.16526762 -0.20457815 0.23804559 -0.14090244 0.20834166 0.10987721 0.08840606 -0.23721452
-0.027486203 -0.21459553 0.021864433 -0.12714961 0.2036642 -0.19319001 0.03080999 -0.16566949
0.18710925 -0.18608774 0.13674396 -0.053040914 -0.10632675 0.19790311 0.015994519 -0.13697535
0.22637519 0.16962603 0.016824102 -0.24192016 -0.17879678 0.10429189 0.050758094 -0.14153852
0.10842395 0.18949074 -0.22836582 -0.03543269 0.10418576 0.12665796 0.016250085 0.22700633
0.113911845 0.07294738 -0.088075854 -0.024605615 0.17187887 -0.07049272 -0.15174742 -0.09982493
-0.26350704 0.010364238 0.018874958 -0.04801762 0.10542174 -0.07365447 -0.015295145 -0.09219439
0.11017425 0.21139008 -0.03530017 0.14264716 0.16481712 -0.2728792 -0.189061 -0.050310507
-0.112137556 0.18825921 0.18856113 -0.17148669 -0.04930927 -0.02797158 -0.120122224 -0.18211038
0.23907813 -0.22186236 0.19551255 -0.06862438 -0.077261105 -0.097402014 0.22390915 -0.10973334
-0.13323097 -0.19298361 0.127675 -0.005892884 0.052466158 0.15301053 -0.09923147 0.08952505
-0.12331188 -0.00023389568 -0.07077675 -0.053979527 -0.047929734 -0.043599363 0.26382494 -0.19365855
-0.011131565 0.1301882 -0.10664584 -0.18596885 0.24116948 0.23577298 0.077093944 0.112989195
-0.020379584 -0.013932249 0.12829104 -0.21133384 0.18335578 -0.024195055 0.25530693 0.041118216
0.16769248 -0.14266664 -0.014713868 0.0011652564 -0.23542967 0.23904681 0.14633413 0.1279858
0.15534513 -0.15215036 -0.110264316 0.11587773 0.04827385 -0.033763066 0.009658084 0.11600578
-0.1463678 0.07724098 0.055837672 0.033413928 0.017987631 0.065965414 -0.087521695 -0.19775929
0.21486653 -0.13517831 0.05236181 -0.07235865 0.26006883 -0.0921412 -0.21996939 -0.21585749
0.13083982 -0.05182502 -0.029950282 -0.07257673 -0.19139993 -0.15023905 -0.22167256 0.09186885
0.07523575 -0.13210072 -0.24669638 -0.22855793 -0.012267272 0.14325204 0.17086154 0.19632974
0.16555688 0.102881536 -0.0813413 0.11890566 -0.24126886 0.008138852 0.17674303 -0.12878434
-0.053624798 -0.19922774 0.2294409 -0.013953055 -0.086746484 0.15918352 -0.26128203 0.14711449
-0.2095594 -0.19569749 0.06820782 -0.24798019 0.19830473 0.067358 -0.091289654 0.15648876
0.15043882 0.04640983 -0.100362435 -0.021802986 0.08198706 -0.055434458 -0.07730502 0.2079231
-0.11415064 0.23889036 -0.029104134 0.10331516 0.07226174 0.036687255 -0.1919721 -0.12555815
-0.15774518 -0.18151534 -0.018959867 0.1440867 0.019890483 0.040544994 0.1614402 -0.024815574
-0.20212285 -0.22504619 0.044554017 0.058231346 -0.2259728 -0.20309983 0.13652693 -0.206359
00000000: 02dc 443d 1b8c e8ba f663 e53c a573 643d
00000010: 398f d5bc ef19 51be 020a 393d 8313 783e
00000020: 28a0 a73d 0ac7 403e 5bd2 80bd 1556 383e
00000030: cca1 a43d f4d7 b53d b794 2cbe 003d 04be
00000040: d126 c1bd caae 623e c3e3 223d b0d6 79bc
00000050: 12e4 eb3d e060 193e 6d86 7e3d 50fb 303e
00000060: 6f8e 1e3e cc0b 60be 2d07 c9bd 6aa7 b6bd
00000070: 7165 653e 656e 81be 02b9 843e fea5 2bbe
00000080: 28f2 27be 8f03 e6bd 6528 3cbe 4cb0 873e
00000090: 5b6f a5bd 6a96 513e b592 2dbe c603 653d
000000a0: ea3b 29be ef7c 51be 39c2 733e bb48 10be
000000b0: 8457 553e 4d07 e13d 3d0e b53d 5de8 72be
000000c0: bf2a e1bc eebe 5bbe 0a1d b33c 8233 02be
000000d0: 598d 503e 9ad3 45be 3b65 fc3c 43a5 29be
000000e0: 9199 3f3e c98d 3ebe 9c06 0c3e 6e41 59bd
000000f0: d7c1 d9bd 1da7 4a3e f006 833c 4443 0cbe
00000100: e6ce 673e 72b2 2d3e b3d2 893c ebb9 77be
00000110: 8116 37be fd96 d53d b8e7 4f3d 79ef 10be
00000120: 600d de3d dc09 423e bbd8 69be de21 11bd
00000130: 585f d53d a0b2 013e e61e 853c 5974 683e
00000140: 9d4a e93d 7065 953d 1d61 b4bd b791 c9bc
00000150: 0401 303e 7d5e 90bd ad63 1bbe 0371 ccbd
00000160: 65ea 86be c4ce 293c a89f 9a3c 20ae 44bd
00000170: 5ae7 d73d 28d8 96bd 7d98 7abc 6ad0 bcbd
00000180: 0aa3 e13d a476 583e e996 10bd 1912 123e
00000190: d2c5 283e d3b6 8bbe 3599 41be 6412 4ebd
000001a0: 60a8 e5bd 06c7 403e 2b16 413e 359a 2fbe
000001b0: 84f8 49bd a824 e5bc a402 f6bd 257b 3abe
000001c0: e6d0 743e e32f 63be 7134 483e f08a 8cbd
000001d0: 123b 9ebd b57a c7bd 7148 653e e0bb e0bd
000001e0: b36d 08be 7f9d 45be 3cbd 023e 1819 c1bb
000001f0: c1e6 563d cbae 1c3e de39 cbbd e958 b73d
00000200: f08a fcbd e541 75b9 67f3 90bd a319 5dbd
00000210: f851 44bd 3f95 32bd 1014 873e 6d4e 46be
00000220: 2b61 36bc 0e50 053e 2269 dabd 9e6e 3ebe
00000230: 22f5 763e 796e 713e 6ee3 9d3d e166 e73d
00000240: 16f3 a6bc 1644 64bc ba5e 033e e667 58be
00000250: 9ec1 3b3e b534 c6bc 97b7 823e 936b 283d
00000260: 94b7 2b3e 3417 12be 6f12 71bc 84bb 983a
00000270: 7a14 71be b0c8 743e 9dd8 153e b60e 033e
00000280: cb12 1f3e 4ecd 1bbe 42d2 e1bd 4e51 ed3d
00000290: cdba 453d 244b 0abd f13c 1e3c 7094 ed3d
000002a0: 71e1 15be 8530 9e3d 0bb6 643d 0bdd 083d
000002b0: cc5a 933c e018 873d 933e b3bd 6981 4abe
000002c0: f905 5c3e 2f6c 0abe 5679 563d c630 94bd
000002d0: be27 853e 87b4 bcbd a83f 61be bf09 5dbe
000002e0: e0fa 053e 7946 54bd 4b5a f5bc 1ca3 94bd
000002f0: 58fe 43be 44d8 19be 22fe 62be bc25 bc3d
00000300: 3315 9a3d 6945 07be fa9d 7cbe 170b 6abe
00000310: abfc 48bc aab0 123e 54f6 2e3e aa0a 493e
00000320: be87 293e 8eb3 d23d 4496 a6bd d084 f33d
00000330: 2f0f 77be d258 053c 20fc 343e 0be0 03be
00000340: ada5 5bbd 5b02 4cbe 8ef2 6a3e 5b9b 64bc
00000350: 24a8 b1bd 0101 233e c2c6 85be 2ea5 163e
00000360: bd96 56be ec64 48be 8bb0 8b3d 85ee 7dbe
00000370: 6510 4b3e fef2 893d 12f6 babd 973e 203e
00000380: a20c 1a3e 3c18 3e3d d28a cdbd 2d9c b2bc
00000390: d5e8 a73d 3e0f 63bd 1852 9ebd cbe9 543e
000003a0: d0c7 e9bd ad9f 743e cb6b eebc e696 d33d
000003b0: f7fd 933d 6045 163d 5694 44be 5192 00be
000003c0: f487 21be 28df 39be b951 9bbc 778b 133e
000003d0: 5ef1 a23c 8212 263d 9450 253e 084a cbbc
000003e0: 4bf9 4ebe 8272 66be 467e 363d fe83 6e3d
000003f0: 6a65 67be 67f9 4fbe b7cd 0b3e c64f 53be

arith.constant5 f4 [64, 64]
-0.09972835 0.2002226 -0.13302666 0.14542605 -0.11399846 0.021820663 0.18159834 -0.17898805
0.15642248 0.060430102 -0.030614821 -0.0018896123 -0.028279332 -0.21227135 0.14367926 -0.104419306
-0.04490657 -0.17080809 0.16067699 0.13039413 0.11273996 0.14162664 -0.13863876 0.10326999
0.18314908 -0.024201859 0.19158365 0.033340324 0.049381405 -0.22172384 0.11243345 -0.18046722
0.15328588 0.124409415 0.046047717 -0.022048011 -0.07371477 0.20969722 0.039929356 -0.062909186
0.070677206 0.06732605 -0.17338838 0.12651226 -0.003964039 -0.008812475 -0.04212102 -0.011091273
-0.05285864 0.14535816 0.02313842 -0.080971174 0.086909905 0.00082377525 -0.07363801 -0.19504091
-0.07495993 0.029458638 -0.01254282 -0.22417769 0.06042587 -0.037120763 -0.16568764 -0.20893402
-0.18625861 -0.18205892 -0.1319056 0.13024755 0.103932716 0.12723155 0.2172114 -0.057181343
-0.13391206 0.06343661 -0.0052807964 0.100008406 -0.20563152 0.22704569 0.17375423 0.18910204
0.021140974 0.00055061764 -0.0192217 -0.19963315 -0.039027028 0.18149696 0.20102 -0.006403212
-0.01453728 -0.13400199 0.19821215 0.046558417 -0.1719282 0.1805467 0.21290372 0.07028832
0.09550085 -0.07866943 0.19814108 0.07006595 0.0025863913 -0.14079142 0.1519653 -0.09842615
0.019841008 -0.015674045 -0.20255913 -0.07240295 -0.02781432 0.087608926 -0.052793514 0.0822044
-0.14900717 0.07695217 -0.14818874 -0.035495866 -0.17411722 -0.13500844 -0.14827035 0.23571102
-0.19528897 -0.0032456734 0.13295583 -0.035625808 -0.012095099 0.19272965 -0.071767636 0.04108301
0.017548464 0.18019943 -0.1963982 0.016424112 0.12941286 0.09923929 0.032137714 -0.13852501
0.1624686 -0.09633807 0.087911375 0.16224876 -0.06156806 -0.21585199 -0.066381134 -0.13822937
-0.12895922 0.086842224 -0.040235035 0.1161884 0.17354244 0.14649428 0.13098125 0.16195081
-0.1334938 0.12641397 0.0023955686 -0.11371685 0.16963458 0.2334863 0.1989045 -0.14455724
0.24592683 -0.015236468 -0.039818864 -0.11960824 0.07472078 -0.07214963 0.000875253 -0.037712812
-0.1312471 -0.044552077 -0.17534168 -0.16670664 -0.19825181 0.03307252 0.09372419 -0.21605977
0.1542941 0.08598339 -0.03763968 -0.028840948 0.19117774 0.10039035 0.19648537 0.13115844
-0.027081989 -0.11373401 -0.16185613 0.19225208 0.018037166 0.09744388 -0.16546042 0.11771718
-0.12958677 0.0016969619 0.11809743 0.15471551 0.19501504 -0.084132574 0.10831707 -0.1651124
-0.038541872 -0.07685527 -0.11922196 -0.052031208 0.09740424 -0.089002796 -0.047917094 -0.16684064
-0.06574427 0.028854765 -0.08615209 0.19658224 -0.082944475 -0.1932301 0.13634019 0.07085186
0.19937803 -0.024218982 -0.041167747 -0.03766672 0.17149256 -0.16879693 -0.04953785 -0.038144115
0.05950108 0.012758248 0.10707124 0.20300141 -0.105432354 -0.1835701 -0.08631341 0.09285568
0.17320508 -0.19554348 -0.2070069 0.008583549 0.19788763 0.19318931 -0.07236448 0.19182996
0.16416462 -0.13434671 -0.0079232855 0.047034975 -0.124571316 0.056129843 0.13331872 0.050696816
-0.008464585 0.2065329 0.10760062 0.14774847 0.04049985 0.18851918 0.031333666 -0.047858942
00000000: 613e ccbd 2707 4d3e 2438 08be 91ea 143e
00000010: 0678 e9bd 3fc1 b23c eaf4 393e a548 37be
00000020: 372d 203e 8e85 773d efcb fabc deac f7ba
00000030: 0faa e7bc a95d 59be a820 133e cad9 d5bd
00000040: f4ef 37bd 51e8 2ebe 8288 243e 0a86 053e
00000050: 35e4 e63d 9306 113e 52f7 0dbe 377f d33d
00000060: 6f8b 3b3e fa42 c6bc 812e 443e dd8f 083d
00000070: 2844 4a3d 930b 63be 8243 e63d 66cc 38be
00000080: f9f6 1c3e 5dca fe3d 889c 3c3d 089e b4bc
00000090: c5f7 96bd deba 563e f78c 233d 88d6 80bd
000000a0: 36bf 903d 3de2 893d b98c 31be 6e8c 013e
000000b0: c5e4 81bb 3362 10bc 1787 2cbd 2cb8 35bc
000000c0: 4d82 58bd c5d8 143e c98c bd3c 37d4 a5bd
000000d0: d2fd b13d 9ff2 573a 86cf 96bd ceb8 47be
000000e0: 9784 99bd 3e53 f13c 6680 4dbc d68e 65be
000000f0: 1e81 773d f10b 18bd 05aa 29be cdf2 55be
00000100: 94ba 3ebe a76d 3abe 4312 07be 9d5f 053e
00000110: adda d43d fd48 023e aa6c 5e3e fc36 6abd
00000120: 3e20 09be 0eeb 813d 880a adbb 35d1 cc3d
00000130: 1291 52be aa7e 683e a1ec 313e f7a3 413e
00000140: d62f ad3c 5357 103a d476 9dbc a26c 4cbe
00000150: ceda 1fbd 57da 393e 30d8 4d3e 09d2 d1bb
00000160: c62d 6ebc d137 09be 20f8 4a3e 0ab4 3e3d
00000170: f20d 30be 3ce1 383e 6f03 5a3e 53f3 8f3d
00000180: f395 c33d 701d a1bd 7fe5 4a3e bd7e 8f3d
00000190: 7280 293b a02b 10be cb9c 1b3e a693 c9bd
000001a0: 9c89 a23c db66 80bc a96b 4fbe ff47 94bd
000001b0: dbda e3bc 4f6c b33d 033e 58bd c85a a83d
000001c0: 5695 18be 1999 9d3d cabe 17be 1d64 11bd
000001d0: c94b 32be a73f 0abe 2fd4 17be 3b5e 713e
000001e0: d5f9 47be 5db5 54bb 9325 083e 5eec 11bd
000001f0: 862a 46bc ec5a 453e e9fa 92bd a946 283d
00000200: ccc1 8f3c 3386 383e 9c1c 49be dc8b 863c
00000210: ce84 043e f83d cb3d d6a2 033d 80d9 0dbe
00000220: 2b5e 263e e54c c5bd e10a b43d 8a24 263e
00000230: ca2e 7cbd 4e08 5dbe d5f2 87bd 008c 0dbe
00000240: e30d 04be 56da b13d 7ecd 24bd 2ff4 ed3d
00000250: 1cb5 313e 9902 163e f31f 063e 6fd6 253e
00000260: 99b2 08be aa72 013e f9fe 1c3b 61e4 e8bd
00000270: b0b4 2d3e 0817 6f3e 9fad 4b3e d006 14be
00000280: 3ed4 7b3e 61a2 79bc 1b19 23bd 2af5 f4bd
00000290: 3507 993d 2fc3 93bd 3c71 653a c078 1abd
000002a0: a465 06be 3d7c 36bd c58c 33be 25b5 2abe
000002b0: 8602 4bbe 0d77 073d 78f2 bf3d c63e 5dbe
000002c0: 46ff 1d3e 0f18 b03d 112c 1abd da43 ecbc
000002d0: 19c4 433e 7599 cd3d 7633 493e 664e 063e
000002e0: 0cdb ddbc 60ed e8bd 9dbd 25be bbdd 443e
000002f0: aec2 933c a890 c73d 756e 29be b415 f13d
00000300: 65b2 04be 986c de3a 11dd f13d be6d 1e3e
00000310: 06b2 473e b34d acbd 57d5 dd3d 3a13 29be
00000320: 15de 1dbd 4c66 9dbd a52a f4bd ad1e 55bd
00000330: e07b c73d 1947 b6bd b744 44bd 46d8 2abe
00000340: efa4 86bd d460 ec3c 8270 b0bd db4c 493e
00000350: cbde a9bd 1dde 45be c39c 0b3e c81a 913d
00000360: c129 4c3e e366 c6bc 839f 28bd 6b48 1abd
00000370: bf9b 2f3e 1ad9 2cbe 33e8 4abd 013d 1cbd
00000380: 68b7 733d f807 513c 2b48 db3d 9adf 4f3e
00000390: ebec d7bd cdf9 3bbe 16c5 b0bd 1e2b be3d
000003a0: ac5c 313e 8d3c 48be 9ef9 53be 04a2 0c3c
000003b0: 0ea3 4a3e 6bd3 453e d433 94bd 136f 443e
000003c0: c51a 283e 2f92 09be abd0 01bc bfa7 403d
000003d0: 3f1f ffbd 68e8 653d b484 083e 77a7 4f3d
000003e0: 0baf 0abc 5c7d 533e b75d dc3d 604b 173e
000003f0: 2ce3 253d 2c0b 413e bb57 003d bd07 44bd

arith.constant6 f4 [4]
-0.03234319 0.017586332 0.039363462 -0.028101992
00000000: 4b7a 04bd 3611 903c 953b 213d 2636 e6bc

arith.constant7 f4 [64]
-0.021306666 0.009563555 -0.002529715 -0.0062300917 0.0069121206 -0.0051852916 -0.018391894 -0.012318884
-0.005438887 0.009745195 -0.0019189812 -0.001296459 0.04221045 -0.014427755 0.0033932317 0.017514495
-0.0030318901 0.029171638 -0.010176518 0.037820507 0.00838431 -0.011553319 0.041040555 0.043416712
-0.0016367018 0.02143113 -0.021386854 0.005395389 -0.0015926133 0.005717398 0.013988115 -0.0050542895
0.0041504637 -0.016601237 0.03811991 0.012163875 -0.014862048 0.015210811 0.005956933 0.02758911
0.0014125981 -0.015157321 -0.0040257215 -0.017830307 0.058289595 -0.009873907 -0.016245935 -0.007540497
-0.0031766016 -0.01865979 -0.025525086 -0.0038505718 0.035113197 0.008530937 -0.028001165 0.004285159
0.029280214 -0.007374038 -0.007725705 -0.014995691 -0.011274763 -0.0017163538 -0.0167749 -0.019237412
00000000: 518b aebc 75b0 1c3c 93c9 25bb cc25 ccbb
00000010: 127f e23b 61e9 a9bb 99aa 96bc 25d5 49bc
00000020: b138 b2bb 4faa 1f3c 5386 fbba f2ed a9ba
00000030: dde4 2c3d 6462 6cbc fb60 5e3b 8f7a 8f3c
00000040: adb2 46bb 5cf9 ee3c 69bb 26bc ade9 1a3d
00000050: 585e 093c 224a 3dbc 241a 283d b9d5 313d
00000060: 9986 d6ba 5690 af3c 7c33 afbc cecb b03b
00000070: 3cbf d0ba 0359 bb3b 682e 653c 749e a5bb
00000080: 9d00 883b 51ff 87bc 9f23 1c3d fd4a 473c
00000090: f37f 73bc c436 793c 6032 c33b 8f02 e23c
000000a0: ed26 b93a 6956 78bc 33ea 83bb dd10 92bc
000000b0: 12c1 6e3d 2bc6 21bc 3216 85bc 4616 f7bb
000000c0: 882e 50bb 6adc 98bc fc19 d1bc e059 7cbb
000000d0: dbd2 0f3d 58c5 0b3c b362 e5bc 856a 8c3b
000000e0: 0fdd ef3c eaa1 f1bb e927 fdbb 7db0 75bc
000000f0: c9b9 38bc 47f7 e0ba 846b 89bc c797 9dbc

arith.constant8 f4 [32]
0.012855983 -0.012247268 0.039912082 -0.012160561 -0.017741892 -0.006248201 0.027802855 -0.02032707
0.029673818 0.00463415 0.0030006822 -0.015151471 -0.01957394 -0.020670177 -0.024625162 -0.023456926
-0.029574392 -0.012980066 -0.018666498 -0.01304769 0.06907787 0.035551794 -0.0073356098 -0.0046543004
0.018262181 -0.013118726 -0.007539548 -0.018779995 0.018229943 -0.021612361 -0.01031502 -0.015760278
00000000: e7a1 523c c4a8 48bc da7a 233d 173d 47bc
00000010: 7257 91bc b5bd ccbb d0c2 e33c f584 a6bc
00000020: 8216 f33c 11da 973b 18a7 443b e03d 78bc
00000030: 8759 a0bc 8154 a9bc b5ba c9bc bd28 c0bc
00000040: ff45 f2bc 58aa 54bc 7cea 98bc fac5 55bc
00000050: b378 8d3d c29e 113d 8e5f f0bb 1a83 98bb
00000060: 929a 953c edef 56bc 500e f7bb 81d8 99bc
00000070: f656 953c 680c b1bc 5400 29bc b31b 81bc

arith.constant22 f4 [256, 258]
0.105612084 0.10914054 0.06269188 -0.06647843 0.006725962 0.084208295 -0.018527823 0.032491144
-0.08129519 -0.061807953 0.015381261 0.07534895 0.036994662 0.08257287 -0.040363617 0.009864813
-0.08560385 0.06848319 0.007221684 -0.014068333 0.05298857 -0.104061596 -0.10147976 0.03980707
-0.038008615 -0.07645155 -0.045516323 -0.037464485 -0.06862689 0.034405645 -0.065331005 0.014380176
0.06995447 -0.027420292 -0.049732994 -0.09102616 0.05152874 0.0045843194 0.058133066 -0.046550874
0.0023615966 0.044834696 0.056191072 -0.052991368 0.029464731 -0.040907335 0.018716903 0.06997769
0.10377297 0.015047657 -0.079320505 0.10573207 0.030806288 -0.016478583 -0.07877801 0.08884721
0.044133343 0.047794685 -0.005511397 0.1103259 -0.068004504 0.015440719 0.032481328 -0.021996226
0.0852369 -0.042976752 0.008170531 -0.013985316 -0.101488665 -0.095502645 0.037779223 -0.0009152812
-0.01419237 -0.089839675 0.091591194 -0.030934464 -0.0141583 -0.033183906 -0.10788607 -0.036235906
0.06391042 -0.040165517 0.09138775 0.07989579 -0.05621851 -0.06573048 -0.052906122 0.016959766
0.022671703 0.03799628 -0.07207001 0.010428172 0.031149201 0.00928031 -0.091074646 -0.106792964
0.09173823 0.106461525 -0.081937075 -0.025568174 -0.104577236 0.017041383 0.06516554 -0.06373869
-0.007923089 0.075796954 -0.019826323 0.05231466 -0.08061269 0.09193301 -0.10282952 0.005138072
-0.102643736 -0.029118152 -0.023995517 -0.04594005 0.09546337 0.00026420856 -0.032169405 0.08575019
-0.08302293 -0.0914576 -0.017839756 0.011768705 -0.009021703 -0.017269349 0.0452138 -0.030390905
-0.06690563 -0.09845313 -0.10688187 -0.0997442 0.04579995 0.052338023 -0.09236741 -0.051318903
0.103559 0.048465043 -0.076195195 -0.03329398 -0.063744985 0.07520169 -0.02551464 0.080563165
0.046870787 -0.10457641 0.09951524 -0.0034636206 -0.060820647 -0.08177715 -0.03425809 -0.0846147
-0.05117965 0.0077244127 -0.033213273 0.102467835 0.056092404 -0.081345126 -0.0945841 0.08103451
-0.09435482 0.066441596 0.09194487 0.109711654 -0.105212994 0.049526438 0.07940383 0.028489692
0.006795804 0.011299848 0.054473706 -0.09443517 0.0029211473 0.02540979 -0.03844401 -0.09380531
0.016041066 -0.05170892 -0.04418267 -0.098728105 0.06442603 0.08570849 -0.10850079 0.044374023
-0.09814456 -0.013690753 0.11035393 -0.055273775 -0.067721955 0.044962794 -0.058694288 -0.010198146
0.06436941 0.10927731 -0.0068048895 0.055023797 0.09611878 -0.023201656 -0.03948284 0.02348167
0.10079487 0.03318117 0.10412663 -0.100400016 -0.04623142 -0.041495852 0.02778322 -0.036325037
-0.10266475 -0.067606285 -0.026065495 -0.0034243534 -0.10257843 -0.06892413 -0.039841898 -0.03455947
0.07201487 -0.010891815 -0.08318747 0.0270699 0.07380551 -0.02448478 -0.028466757 -0.10374345
0.09019497 0.040857516 0.041080676 -0.021195445 -0.035701014 -0.07431455 -0.056294523 -0.0651852
0.02598058 -0.058735296 0.07917656 0.09714478 0.049257375 -0.09036383 -0.021256622 -0.03768657
0.029656095 -0.052008845 -0.067497216 -0.08806935 0.05338525 0.104613274 0.085218444 -0.10941304
0.035859413 -0.043061353 0.07379183 -0.025061402 -0.040174015 0.0067676804 -0.09581339 -0.01613592
00000000: 264b d83d 1385 df3d 9a64 803d d825 88bd
00000010: 7565 dc3b 6675 ac3d a9c7 97bc 6f15 053d
00000020: 187e a6bd 562a 7dbd af01 7c3c 8d50 9a3d
00000030: b787 173d f71b a93d 5254 25bd 06a0 213c
00000040: 1251 afbd ea40 8c3d e0a3 ec3b de7e 66bc
00000050: 8b0a 593d 3f1e d5bd 9fd4 cfbd bd0c 233d
00000060: ecae 1bbd a192 9cbd 536f 3abd 5c74 19bd
00000070: 418c 8cbd efec 0c3d 43cc 85bd d49a 6b3c
00000080: 4a44 8f3d 85a0 e0bc d3b4 4bbd ec6b babd
00000090: cd0f 533d 0f38 963b f01c 6e3d 21ac 3ebd
000000a0: 04c5 1a3b 96a4 373d 9c28 663d 7a0d 59bd
000000b0: 0560 f13c 738e 27bd 3154 993c 7750 8f3d
000000c0: ec86 d43d 738a 763c ca72 a2bd 0e8a d83d
000000d0: 785d fc3c 18fe 86bc 5e56 a1bd 87f5 b53d
000000e0: 2ac5 343d 5cc4 433d f398 b4bb 8cf2 e13d
000000f0: f245 8bbd 12fb 7c3c 240b 053d 6e31 b4bc
00000100: af90 ae3d 6408 30bd b1dd 053c ab22 65bc
00000110: 4ad9 cfbd e496 c3bd 63be 1a3d 7bef 6fba
00000120: 1d87 68bc ddfd b7bd 2a94 bb3d 466a fdbc
00000130: 37f8 67bc d9eb 07bd 5ff3 dcbd 1a6c 14bd
00000140: 77e3 823d 9984 24bd 8029 bb3d 67a0 a33d
00000150: 6145 66bd b49d 86bd 17b4 58bd 35ef 8a3c
00000160: 02ba b93c fda1 1b3d 7199 93bd ecda 2a3c
00000170: 9c2c ff3c 710c 183c 5885 babd 45b6 dabd
00000180: 41e1 bb3d 8008 da3d a0ce a7bd 5974 d1bc
00000190: 972c d6bd 5f9a 8b3c 8375 853d 6e89 82bd
000001a0: d8cf 01bc 6f3b 9b3d d06a a2bc e647 563d
000001b0: 4418 a5bd 6047 bc3d 4998 d2bd 465d a83b
000001c0: e136 d2bd 3189 eebc 3f92 c4bc a22b 3cbd
000001d0: 4d82 c33d 7985 8a39 11c4 03bd cc9d af3d
000001e0: ed07 aabd 1f4e bbbd ae24 92bc 87d1 403c
000001f0: c4cf 13bc 7378 8dbc 1b32 393d 59f6 f8bc
00000200: d205 89bd cba1 c9bd e2e4 dabd b046 ccbd
00000210: ba98 3b3d 6560 563d 202b bdbd c533 52bd
00000220: be16 d43d 4883 463d 3a0c 9cbd 455f 08bd
00000230: bb8c 82bd 5803 9a3d 1404 d1bc 4dfe a43d
00000240: 95fb 3f3d 282c d6bd a5ce cb3d e9fd 62bb
00000250: 121f 79bd c77a a7bd 3652 0cbd 794a adbd
00000260: c1a1 51bd 121d fd3b a40a 08bd a8da d13d
00000270: 26c1 653d 4698 a6bd 4fb5 c1bd 6cf5 a53d
00000280: 1a3d c1bd 8812 883d 984d bc3d 81b0 e03d
00000290: e979 d7bd 3cdc 4a3d 7a9e a23d 3763 e93c
000002a0: 56af de3b ff22 393c d21f 5f3d 3a67 c1bd
000002b0: b870 3f3b 3128 d03c 7777 1dbd 001d c0bd
000002c0: 8e68 833c bccc 53bd e3f8 34bd f631 cabd
000002d0: cbf1 833d ef87 af3d aa35 debd 89c1 353d
000002e0: 0400 c9bd 2e4f 60bc 3e01 e23d c166 62bd
000002f0: cfb1 8abd e82a 383d 6c69 70bd 2016 27bc
00000300: 1cd4 833d c8cc df3d 8dfb debb a260 613d
00000310: ecd9 c43d 6611 bebc c2b8 21bd a25c c03c
00000320: 8a6d ce3d fae8 073d 5840 d53d 869e cdbd
00000330: 285d 3dbd 8ef7 29bd a399 e33c 90c9 14bd
00000340: e541 d2bd 2a75 8abd 4e87 d5bc 1e6b 60bb
00000350: a414 d2bd 1828 8dbd 4231 23bd 3b8e 0dbd
00000360: 887c 933d 9573 32bc 315e aabd b2c1 dd3c
00000370: 5827 973d 4e94 c8bc 1e33 e9bc 7277 d4bd
00000380: 24b8 b83d 365a 273d 3644 283d 12a2 adbc
00000390: 3a3b 12bd 3a32 98bd 1695 66bd d17f 85bd
000003a0: 3ad5 d43c 6c94 70bd 5227 a23d d8f3 c63d
000003b0: 1ac2 493d ac10 b9bd 5e22 aebc 3c5d 1abd
000003c0: 57f1 f23c 3a07 55bd fb3b 8abd b45d b4bd
000003d0: 7eaa 5a3d 7c3f d63d 0287 ae3d f213 e0bd
000003e0: 52e1 123d 1a61 30bd 2c20 973d 924d cdbc
000003f0: 828d 24bd 6bc3 dd3b d039 c4bd 7a2f 84bc

arith.constant23 f4 [256, 64]
0.015187997 0.025728522 -0.021148657 -0.069042 0.014407452 -0.006300506 -0.09293545 -0.026078211
-0.04631412 0.036865745 -0.04554673 0.028723262 0.049646623 0.08255414 -0.036774892 0.00917764
-0.07197965 0.057982355 -0.018212149 0.008470734 0.015000127 0.059789453 -0.017180623 -0.007723624
-0.008354085 -0.007665911 -0.054087084 -0.010089132 0.020163566 -0.12954192 0.014610805 0.00433836
-0.031283226 0.096480004 0.094039656 -0.016244018 -0.064462245 0.0040853354 0.06699801 0.01416417
0.07944853 -0.0020920467 -0.033647448 0.084799975 0.010326767 0.028662037 -0.003566803 -0.0037280782
0.05092756 -0.05821413 0.0010346825 -0.028658781 0.024074841 0.009774836 0.10402076 0.009784479
-0.022404475 -0.02869426 0.06504592 -0.05768571 0.003524715 0.016223976 0.022281457 0.14610012
-0.043586284 0.010033545 -0.06804868 0.021027701 0.04097063 0.035882026 -0.07590446 -0.021917721
0.061342686 0.054729894 0.054994605 -0.051328108 0.03192116 -0.103054866 -0.047402784 0.012711142
0.05323069 -0.012340112 -0.014696842 0.034553997 0.07854069 -0.031356417 0.08283298 -0.061664604
-0.11782901 0.08732546 -0.016635695 0.035503533 -0.10280513 -0.015881224 0.007969307 0.04275088
0.07789305 0.03163599 0.14655592 -0.010939572 -0.031840563 -0.035280507 -0.023539567 -0.031881995
0.051065817 0.029317053 -0.041801702 -0.044288993 -0.055674694 0.07143663 0.018163575 -0.03531039
0.0065909144 0.0895581 0.050321724 0.05652506 0.1429779 0.011601531 -0.07681551 0.033765227
0.070504025 0.0051483354 -0.08159944 0.045106724 0.014873658 0.14150505 -0.09447006 -0.030955393
-0.054392915 0.13311546 0.08580804 0.0078401165 -0.1071266 0.004016177 0.14952557 -0.110780716
-0.0004538959 -0.005579791 -0.010329029 -0.04812461 0.0139494445 0.034620814 -0.00426313 -0.058962397
0.013531132 -0.01012075 0.06498857 -0.00143477 0.033153243 -0.07109159 -0.012852408 -0.03748232
-0.02083246 0.062129114 0.071188554 0.01971602 -0.060340818 0.012990364 -0.16948988 0.067692965
-0.018765934 0.053333644 -0.021951195 -0.0060574138 -0.0063293916 -0.04380568 -0.0029910335 0.10791035
-0.060460042 0.05160225 0.039864454 0.15047866 -0.058613125 0.07512001 0.039587077 0.04583851
-0.058388766 0.012855958 -0.11691264 -0.05575291 -0.049508058 0.030021088 0.062163137 0.049840182
-0.087684296 0.053931728 -0.060555167 -0.038997468 0.036720283 0.04984264 -0.06386323 0.09652053
0.123997286 -0.05975781 0.010538895 -0.037500076 0.016583707 -0.02855955 0.020956391 0.039919704
-0.03819495 0.09973136 -0.014380254 -0.055969592 -0.047330376 -0.03897774 0.12103983 0.036829907
-0.044483025 -0.00489749 -0.06540266 -0.060196936 0.0437243 -0.036480166 -0.026292335 -0.03180298
-0.052047413 0.081889726 -0.07197955 -0.034984734 -0.03461434 -0.09882247 -0.078245856 -0.05509215
-0.006320697 -0.02922192 -0.09662544 0.05038747 -0.040796675 -0.06568205 0.00018033711 -0.024724275
0.03975884 0.09890057 -0.06394565 -0.05219372 0.043913353 0.06292307 -0.045771398 -0.11115997
0.0016995007 -0.03666951 -0.14770447 0.015548047 -0.01728979 -0.043247297 0.09637195 -0.100009054
-0.017965589 -0.07517044 0.101771876 -0.06118138 0.007158147 0.042634185 -0.029940382 -0.055633876
00000000: 14d7 783c 9fc4 d23c f33f adbc e465 8dbd
00000010: 3c0d 6c3c 7a74 cebb f154 bebd f9a1 d5bc
00000020: e0b3 3dbd 8900 173d 358f 3abd 0c4d eb3c
00000030: 425a 4b3d 2512 a93d 45a1 16bd d05d 163c
00000040: 116a 93bd e87e 6d3d a531 95bc d5c8 0a3c
00000050: 18c3 753c c9e5 743d 61be 8cbc 7416 fdbb
00000060: 92df 08bc 5332 fbbb 6b8a 5dbd e34c 25bc
00000070: 102e a53c a3a6 04be 2862 6f3c cd28 8e3b
00000080: d722 00bd 4f97 c53d dd97 c03d 2d12 85bc
00000090: c804 84bd 47de 853b 4136 893d d610 683c
000000a0: e9b5 a23d b81a 09bb e8d1 09bd 9cab ad3d
000000b0: 9a31 293c a6cc ea3c 06c1 69bb c652 74bb
000000c0: 6b99 503d f171 6ebd 2f9e 873a d2c5 eabc
000000d0: 9a38 c53c a226 203c d608 d53d 144f 203c
000000e0: 9789 b7bc 3a10 ebbc cc36 853d da47 6cbd
000000f0: e8fe 663b 25e8 843c 9a87 b63c 459b 153e
00000100: 8887 32bd bd63 243c 1b5d 8bbd 4942 ac3c
00000110: d2d0 273d 08f9 123d cc73 9bbd cb8c b3bc
00000120: 7842 7b3d 742c 603d 0642 613d 6c3d 52bd
00000130: c3bf 023d 6e0e d3bd 6c29 42bd 6542 503c
00000140: 6d08 5a3d 2e2e 4abc 06cb 70bc 7e88 0d3d
00000150: f1d9 a03d 966f 00bd 56a4 a93d 0694 7cbd
00000160: 5650 f1bd b1d7 b23d 9547 88bc 276c 113d
00000170: 7f8b d2bd 5719 82bc b291 023c 8c1b 2f3d
00000180: 6486 9f3d bd94 013d c112 163e e43b 33bc
00000190: 406b 02bd 4b82 10bd 0dd6 c0bc b296 02bd
000001a0: 642a 513d 512a f03c 4338 2bbd 6068 35bd
000001b0: 260b 64bd 5e4d 923d c7cb 943c a1a1 10bd
000001c0: 99f8 d73b 3d6a b73d 271e 4e3d d286 673d
000001d0: cc68 123e 5914 3e3c 7351 9dbd 684d 0a3d
000001e0: 6a64 903d 5eb3 a83b 9b1d a7bd d4c1 383d
000001f0: a5b0 733c b3e6 103e 8579 c1bd 2a96 fdbc
00000200: 1bcb 5ebd 6b4f 083e 20bc af3d d573 003c
00000210: 3165 dbbd 229a 833b 3b1d 193e 00e1 e2bd
00000220: e0f8 edb9 aed6 b6bb 163b 29bc 501e 45bd
00000230: 368c 643c 8ece 0d3d bab1 8bbb 8e82 71bd
00000240: aeb1 5d3c 81d1 25bc ba18 853d e40e bcba
00000250: b2cb 073d 7898 91bd e892 52bc 1087 19bd
00000260: d6a8 aabc 197b 7e3d 4ecb 913d 7e83 a13c
00000270: ef27 77bd 89d5 543c c18e 2dbe 9ca2 8a3d
00000280: 04bb 99bc 6174 5a3d fed2 b3bc 457d c6bb
00000290: c966 cfbb 966d 33bd 3705 44bb 1a00 dd3d
000002a0: f3a4 77bd e25c 533d e948 233d 1417 1a3e
000002b0: 5114 70bd 85d8 993d 0f26 223d 29c1 3b3d
000002c0: 0f29 6fbd cca1 523c e56f efbd 2a5d 64bd
000002d0: f6c8 4abd c9ee f53c c69e 7e3d 3825 4c3d
000002e0: d393 b3bd 84e7 5c3d b208 78bd cfbb 1fbd
000002f0: 0268 163d cc27 4c3d baca 82bd 8eac c53d
00000300: 4af2 fd3d 9bc4 74bd 54ab 2c3c ae99 19bd
00000310: 8eda 873c b8f5 e9bc bdac ab3c d882 233d
00000320: 4f72 1cbd f53f cc3d 289b 6bbc 5f40 65bd
00000330: 7fdd 41bd 1fa7 1fbd bbe3 f73d f5da 163d
00000340: d533 36bd 207b a0bb d4f1 85bd 1091 76bd
00000350: 4018 333d 3a6c 15bd 0663 d7bc d743 02bd
00000360: ab2f 55bd cdb5 a73d 046a 93bd 274c 0fbd
00000370: c4c7 0dbd 6f63 cabd 5d3f a0bd 4ea8 61bd
00000380: d91d cfbb cf62 efbc 8fe3 c5bd 1763 4e3d
00000390: 6a1a 27bd 5084 86bd e018 3d39 908a cabc
000003a0: 2ada 223d 628c ca3d f0f5 82bd 15c9 55bd
000003b0: 7dde 333d cfdd 803d ca7a 3bbd d7a7 e3bd
000003c0: c8c1 de3a c532 16bd d73f 17be 3cbd 7e3c
000003d0: 51a3 8dbc 1424 31bd a85e c53d 8cd1 ccbd
000003e0: 922c 93bc f6f2 99bd c66d d03d 5499 7abd
000003f0: e48e ea3b 2fa1 2e3d 8845 f5bc 59e0 63bd

sequential_1/lstm_1/while/lstm_cell_1/add_1/ReadVariableOp f4 [256]
0.0029481496 -0.00570427 -0.006257804 -0.002188102 0.0 0.0 -0.004754339 -0.006938713
-0.0067046415 -0.0064715175 -0.009996919 -0.0012816526 0.0 -0.0075179944 0.00035897284 -0.0070729665
-0.0035685375 0.0 -0.006225705 0.0023160728 0.0048822947 0.0014887045 -0.005625462 0.0012262819
-0.004187741 -0.001284856 0.0019075448 -0.008341409 -0.004980651 -0.0040377774 -0.0040685814 -0.005047771
-0.005321223 -0.0029002463 -0.0035462198 -0.0046431585 -0.004960638 0.0034249215 -0.0064365375 0.0061100554
-0.00096136995 -0.0038665251 0.0020986171 0.0012458691 0.0020939521 0.0080061685 -0.0072152726 -0.00817892
0.0 -0.00034249283 -0.009062333 0.007314015 -0.0066842865 -0.011322268 -0.004851965 -0.0038307428
0.0018639395 -0.0008130881 -0.0014031538 0.0022343476 0.0033808965 -0.0012685256 0.0006072476 -0.0064346357
0.9935479 0.9912168 0.99324775 0.99765486 1.0 1.0 0.9947294 0.99248236
0.99328285 0.9937752 0.99008304 0.9980363 1.0 0.9925339 0.99921155 0.9936335
0.996096 1.0 0.99372345 0.99642533 0.9990479 1.000351 0.9944763 1.0001917
0.99635094 0.99187607 1.0025016 0.9920122 0.9943089 0.9958731 0.99474263 0.99440604
0.9945765 0.9949787 0.9966225 0.9961681 0.9951376 0.99389905 0.9954371 0.99765867
1.0 0.99583226 1.0005791 1.007445 0.9877677 1.0110489 0.992558 0.99182296
1.0 0.9993154 0.9910026 1.0083922 0.99172854 0.98921204 0.99067986 0.9961872
0.99776435 1.002032 0.998624 1.004309 1.0042737 0.998298 1.0044388 1.0065458
-0.002143431 -0.0065829675 -0.006657745 -0.0019506334 0.0 0.0 -0.0010395951 -0.005004954
-0.006776073 -0.0065463306 -0.010455308 -0.0023278752 0.0 -0.008273971 -0.00073096325 -0.0062743016
-0.003000275 0.0 -0.006825949 -0.0041610743 0.003945477 0.0024819584 -0.0055744667 -0.001310808
-0.0020645026 -0.006654492 0.0016085226 -0.006001347 -0.0048512025 -0.003880015 0.0030579027 -0.0061140093
-0.0052435417 0.0051499903 -0.011923076 -0.004568851 -0.006086631 -0.002156533 -0.00802103 -0.011782031
-0.005694229 -0.004443827 -0.005129693 -0.00802658 -0.0077237994 -0.001327874 -0.00724104 -0.007829531
0.0 -0.0027707375 -0.00786237 0.005067335 -0.006747844 -0.009739627 -0.0058539333 -0.008547226
0.00090633903 -0.006149846 -0.0030177278 0.0024268674 -0.0002408805 -0.0011598205 0.0016515584 5.5704426e-05
0.0029688904 -0.007828256 -0.0065126778 -0.0018533302 0.0 0.0 -0.004613446 -0.0072678616
-0.0067509585 -0.0066878307 -0.009644431 -0.0012375439 0.0 -0.007482342 -0.0019155125 -0.006472137
-0.0035058323 0.0 -0.0062622814 -0.0026462295 -0.00016022596 0.0033375286 -0.0055905515 -0.0019874142
-0.0032273524 -0.0037861075 0.009886147 -0.008369014 -0.0056384234 -0.004215173 -0.0060316743 -0.004710605
-0.0055687074 0.002625932 -0.0033096278 -0.003432436 -0.0049227322 0.00457955 -0.011766496 -0.0021263764
-0.0022209117 -0.0037780218 0.00046343612 -0.011093695 0.0044528833 0.005512601 -0.007410789 -0.008173857
0.0 -0.0015664741 -0.008701502 0.010091307 -0.010757345 -0.012285185 0.0006699918 -0.0049910964
-0.0007722098 -0.0016185957 -0.001147828 0.00018827328 0.0014487045 0.00079646456 -0.0009013459 -0.0061708437
00000000: be35 413b e3ea babb 440e cdbb 4366 0fbb
00000010: 0000 0000 0000 0000 49ca 9bbb 255e e3bb
00000020: 9cb2 dbbb 060f d4bb 1eca 23bc 20fd a7ba
00000030: 0000 0000 8259 f6bb 8534 bc39 58c4 e7bb
00000040: 20de 69bb 0000 0000 0001 ccbb 41c9 173b
00000050: a8fb 9f3b a220 c33a cc55 b8bb 31bb a03a
00000060: 5139 89bb 9d68 a8ba 9506 fa3a 68aa 08bc
00000070: bb34 a3bb 554f 84bb bc51 85bb c667 a5bb
00000080: a75d aebb 0f12 3ebb b267 68bb a325 98bb
00000090: d98c a2bb a674 603b 97e9 d2bb dc36 c83b
000000a0: 7204 7cba 8765 7dbb f488 093b 6e4c a33a
000000b0: b03a 093b 4e2c 033c 186e ecbb e000 06bc
000000c0: 0000 0000 9c90 b3b9 2e7a 14bc 68aa ef3b
000000d0: dc07 dbbb 0981 39bc 3bfd 9ebb 330d 7bbb
000000e0: 6e4f f43a 6b25 55ba 07ea b7ba 226e 123b
000000f0: 0892 5d3b a844 a6ba b22f 1f3a a3d9 d2bb
00000100: 2859 7e3f 62c0 7d3f 7c45 7e3f 4f66 7f3f
00000110: 0000 803f 0000 803f 96a6 7e3f 5313 7e3f
00000120: c947 7e3f 0d68 7e3f 1576 7d3f 4f7f 7f3f
00000130: 0000 803f b416 7e3f 54cc 7f3f c45e 7e3f
00000140: 2600 7f3f 0000 803f a964 7e3f bb15 7f3f
00000150: 9ac1 7f3f 800b 803f 0096 7e3f 4806 803f
00000160: db10 7f3f 97eb 7d3f f951 803f 83f4 7d3f
00000170: 078b 7e3f 8af1 7e3f 74a7 7e3f 6591 7e3f
00000180: 919c 7e3f edb6 7e3f a722 7f3f df04 7f3f
00000190: 56c1 7e3f 2b70 7e3f f7d4 7e3f 8f66 7f3f
000001a0: 0000 803f ddee 7e3f fa12 803f f5f3 803f
000001b0: 58de 7c3f 0d6a 813f 4818 7e3f 1ce8 7d3f
000001c0: 0000 803f 22d3 7f3f 59b2 7d3f ff12 813f
000001d0: ece1 7d3f 003d 7d3f 329d 7d3f 2006 7f3f
000001e0: 7c6d 7f3f 9642 803f d3a5 7f3f 338d 803f
000001f0: 0a8c 803f 7590 7f3f 7391 803f 7ed6 803f
00000200: ce78 0cbb efb5 d7bb 3729 dabb 65ac ffba
00000210: 0000 0000 0000 0000 0643 88ba 9900 a4bb
00000220: d209 debb 9a82 d6bb bd4c 2bbc 448f 18bb
00000230: 0000 0000 8d8f 07bc 1d9e 3fba a898 cdbb
00000240: 43a0 44bb 0000 0000 36ac dfbb 9f59 88bb
00000250: 0f49 813b 5aa8 223b 04aa b6bb 6bcf abba
00000260: 9b4c 07bb ed0d dabb 10d5 d23a f3a6 c4bb
00000270: d6f6 9ebb da47 7ebb 1867 483b 0758 c8bb
00000280: 04d2 abbb 40c1 a83b 0159 43bc 4db6 95bb
00000290: 5d72 c7bb 9f54 0dbb a36a 03bc 6b09 41bc
000002a0: a896 babb 869d 91bb fc16 a8bb eb81 03bc
000002b0: ed17 fdbb 0f0c aeba 3f46 edbb 6f47 00bc
000002c0: 0000 0000 4395 35bb 2cd1 00bc e30b a63b
000002d0: 051d ddbb f592 1fbc 5ad2 bfbb aa09 0cbc
000002e0: 6297 6d3a a684 c9bb 12c5 45bb 140c 1f3b
000002f0: de94 7cb9 1e05 98ba 1b79 d83a 2ca4 6938
00000300: b791 423b 1642 00bc 4d68 d5bb 71eb f2ba
00000310: 0000 0000 0000 0000 642c 97bb 3e27 eebb
00000320: 2537 ddbb 9725 dbbb ad03 1ebc 1535 a2ba
00000330: 0000 0000 6f2e f5bb ef11 fbba 3814 d4bb
00000340: 1bc2 65bb 0000 0000 d333 cdbb 5d6c 2dbb
00000350: 5402 28b9 70ba 5a3b f230 b7bb 473f 02bb
00000360: fd81 53bb 5820 78bb 82f9 213c 301e 09bc
00000370: 86c2 b8bb 6f1f 8abb 5aa5 c5bb 6b5b 9abb
00000380: b479 b6bb d417 2c3b 57e6 58bb b8f2 60bb
00000390: df4e a1bb 0d10 963b 43c8 40bc ad5a 0bbb
000003a0: b78c 11bb b098 77bb 58f9 f239 54c2 35bc
000003b0: 7ee9 913b 0da3 b43b 34d6 f2bb a4eb 05bc
000003c0: 0000 0000 2652 cdba bf90 0ebc 0256 253c
000003d0: 933f 30bc cd47 49bc 63a2 2f3a 5a8c a3bb
000003e0: 1f6e 4aba 0f27 d4ba b772 96ba 396b 4539
000003f0: 75e2 bd3a d5c9 503a 4d48 6cba ca34 cabb

arith.constant26 f4 [512, 64]
0.071469024 -0.04794233 0.059315626 -0.08381035 -0.07807015 0.016772933 0.054680508 -0.038833287
0.0757288 0.01791027 -0.0027079552 0.0007359473 0.052536815 0.027106576 0.10493822 0.10795845
-0.01743226 -0.0855645 0.031294752 -0.014565062 -0.10295314 0.007819712 -0.018343113 0.077354826
-0.012415883 -0.06237973 -0.0038873253 0.061009668 0.032480486 -0.048378587 0.03154368 0.10163118
0.09655513 0.00718041 0.032249816 -0.091700144 -0.09984517 -0.06323975 0.012845905 -0.010248237
-0.028404467 -0.01007453 0.022765473 0.051067285 -0.033241544 0.015166121 -0.0769628 -0.026416693
0.07169017 -0.095491216 0.036704518 0.06145496 -0.024672586 -0.09105794 0.04025123 -0.077325754
0.01666707 -0.05369569 0.06234777 -0.09620372 0.025783228 -0.10006483 -0.0906363 -0.08766674
0.04523726 0.03199304 -0.0052991393 -0.047347665 -0.09055871 -0.030268922 0.03825363 0.043250203
0.03047215 0.043469913 0.037290238 -0.104747206 0.0015886351 0.011488868 0.004847068 0.036369506
0.072611235 0.06678285 -0.06474166 0.03970333 -0.034742616 -0.014109768 0.0406492 -0.0023829285
-0.09182667 -0.04406482 -0.052829772 -0.046464223 -0.06905767 -0.01777817 0.050331384 -0.018705627
-0.04686577 0.09961781 -0.064779766 0.039741673 0.07448101 0.0557211 -0.042087555 0.059115876
-0.019128121 -0.07212564 -0.061198127 -0.108200386 0.038906373 -0.09058644 0.086215116 -0.0717444
0.03790687 0.0040453174 -0.09814023 -0.0010826515 0.0048814216 0.03166471 -0.032531574 0.09408473
0.016339105 -0.0835581 -0.027310088 -0.01420276 0.03527081 0.05832407 0.0071735517 -0.004733244
-0.0065315785 0.07951277 0.05379109 0.068776995 0.0155179575 -0.064362854 -0.08316408 -0.088975936
-0.05824895 0.06273642 0.09493166 0.04160074 0.0830511 0.040008787 -0.076920375 0.061184473
-0.06987934 -0.035236046 0.024010818 -0.018844092 0.03490539 -0.025016336 0.019459497 0.040403426
0.029647116 0.03472093 -0.03947091 -0.059100103 0.09645034 0.07290824 -0.037410803 0.0067514475
0.0520306 0.018082082 -0.035921115 -0.098347805 0.02331814 -0.06415209 -0.018189445 -0.065033436
0.058137387 -0.020547733 -0.075655475 -0.013686524 0.02540122 -0.010962955 0.10652803 0.07862912
-0.038534306 -0.010387695 0.054949727 -0.013252494 0.039774165 0.055543087 -0.014710754 -0.013555983
0.029306425 0.051463682 -0.050687965 0.050473653 -0.05858061 0.07307265 0.07182734 0.08333318
0.063714735 -0.102840446 0.0152715845 -0.053097036 0.072503015 -0.07805158 -0.083627515 -0.017399753
0.07841517 -0.07378494 0.083799176 -0.032106906 0.014365964 0.057151143 -0.06804064 0.06348379
0.00016273533 -0.011295393 -0.09218643 -0.060482595 -0.06519905 -0.07017121 -0.09799271 -0.07803419
-0.060162038 -0.0915121 -0.051503893 -0.07821966 0.08588514 -0.081078365 -0.10136221 0.08132122
0.08165947 0.04294693 -0.012966308 0.082972884 -0.0024475579 0.07708274 0.013468789 0.09859369
-0.036703497 0.02701678 0.0097857965 -0.09751631 -0.05077953 -0.05627861 -0.0050187996 -0.019270469
0.0886998 -0.06870391 -0.001945259 -0.0032199991 -0.01896424 -0.04438972 0.018840445 -0.030351458
-0.020466646 -0.039496623 -0.04819539 -0.0075629535 -0.001995622 -0.0022311073 -0.044521872 0.042083893
00000000: 5a5e 923d 2d5f 44bd f1f4 723d c3a4 abbd
00000010: 3ee3 9fbd 6467 893c abf8 5f3d a70f 1fbd
00000020: b317 9b3d 8fb8 923c f377 31bb 96ec 403a
00000030: d830 573d 9c0e de3c d9e9 d63d 5219 dd3d
00000040: 19ce 8ebc 713c afbd ed2e 003d 4ca2 6ebc
00000050: 19d9 d2bd 401e 003c 4c44 96bc 356c 9e3d
00000060: fd6b 4bbc e381 7fbd 7fc2 7ebb 46e5 793d
00000070: 420a 053d a028 46bd f233 013d 0224 d03d
00000080: b2be c53d a549 eb3b 6218 043d 49cd bbbd
00000090: a07b ccbd d883 81bd a177 523c 39e8 27bc
000000a0: 7cb0 e8bc a40f 25bc a87e ba3c ee2b 513d
000000b0: 4928 08bd 527b 783c ac9e 9dbd d267 d8bc
000000c0: 4cd2 923d e690 c3bd 7a57 163d 32b8 7b3d
000000d0: 2a1e cabc 967c babd 79de 243d f75c 9ebd
000000e0: 6189 883c 03f0 5bbd 6060 7f3d 7506 c5bd
000000f0: 5937 d33c caee ccbd 869f b9bd 9f8a b3bd
00000100: b54a 393d 220b 033d 67a4 adbb a0ef 41bd
00000110: d876 b9bd 88f6 f7bc d7af 1c3d 2027 313d
00000120: bba0 f93c 820d 323d a6bd 183d b485 d6bd
00000130: c039 d03a ce3b 3c3c 27d4 9e3b 31f8 143d
00000140: 33b5 943d 72c5 883d 4797 84bd f59f 223d
00000150: 464e 0ebd a82c 67bc c77f 263d e82a 1cbb
00000160: 9f0f bcbd 507d 34bd 0864 58bd 4551 3ebd
00000170: 1c6e 8dbd 86a3 91bc 4828 4e3d 8b3c 99bc
00000180: 52f6 3fbd 6c04 cc3d 41ab 84bd 2ac8 223d
00000190: 8089 983d cf3b 643d 0064 2cbd 7d23 723d
000001a0: 94b2 9cbc 9cb6 93bd e3aa 7abd 2a98 ddbd
000001b0: 4a5c 1f3d 6285 b9bd 8d91 b03d baee 92bd
000001c0: 3c44 1b3d 958e 843b bffd c8bd c2e7 8dba
000001d0: 55f4 9f3b dbb2 013d d43f 05bd 7faf c03d
000001e0: 96d9 853c 8220 abbd 68b9 dfbc b1b2 68bc
000001f0: 2078 103d 38e5 6e3d 1d10 eb3b 5419 9bbb
00000200: da06 d6bb 97d7 a23d 0c54 5c3d f4da 8c3d
00000210: 083f 7e3c acd0 83bd ee51 aabd 0439 b6bd
00000220: 7396 6ebd f47b 803d 886b c23d 8a65 2a3d
00000230: b216 aa3d 41e0 233d 6e88 9dbd 929c 7a3d
00000240: e61c 8fbd ac53 10bd 56b2 c43c ed5e 9abc
00000250: f4f8 0e3d 0fef ccbc 8669 9f3c 107e 253d
00000260: 82de f23c 8937 0e3d 40ac 21bd f312 72bd
00000270: c187 c53d ea50 953d 123c 19bd 3f3b dd3b
00000280: 0a1e 553d e020 943c 0522 13bd 936a c9bd
00000290: af05 bf3c 2c62 83bd 0802 95bc 4030 85bd
000002a0: 7821 6e3d b853 a8bc 42f1 9abd 713d 60bc
000002b0: 3816 d03c f79d 33bc 5e2b da3d 4e08 a13d
000002c0: 26d6 1dbd 2731 2abc f712 613d fd20 59bc
000002d0: 3cea 223d 2681 633d 6005 71bc ea19 5ebc
000002e0: 0714 f03c 95cb 523d 2f9e 4fbd 76bd 4e3d
000002f0: 39f2 6fbd 1da7 953d 361a 933d 96aa aa3d
00000300: df7c 823d 039e d2bd ab35 7a3c 477c 59bd
00000310: 767c 943d 82d9 9fbd e744 abbd ed89 8ebc
00000320: 2298 a03d 8f1c 97bd e79e ab3d 8882 03bd
00000330: 385f 6b3c 5117 6a3d e458 8bbd ca03 823d
00000340: efa3 2a39 5010 39bc 3dcc bcbd 99bc 77bd
00000350: 1487 85bd ecb5 8fbd 67b0 c8bd 64d0 9fbd
00000360: 786c 76bd b26a bbbd bff5 52bd a131 a0bd
00000370: 8ce4 af3d 6a0c a6bd fe96 cfbd bd8b a63d
00000380: 153d a73d 1fe9 2f3d a370 54bc b0ed a93d
00000390: 3567 20bb 8edd 9d3d 32ac 5c3c 7deb c93d
000003a0: 6856 16bd 4b52 dd3c 9b54 203c a2b6 c7bd
000003b0: 32fe 4fbd 6684 66bd be74 a4bb 1add 9dbc
000003c0: 3ea8 b53d a3b4 8cbd 10f8 feba 9f06 53bb
000003d0: e55a 9bbc ffd1 35bd 4757 9a3c 9fa3 f8bc
000003e0: aba9 a7bc 36c7 21bd 8768 45bd a7d2 f7bb
000003f0: fbc8 02bb c537 12bb 915c 36bd 2960 2c3d

arith.constant27 f4 [512, 128]
0.007942865 -0.008503332 0.027812945 0.015951898 0.067180544 0.012974557 0.099571794 0.063563295
-0.008962729 0.023645278 -0.052527048 -0.046250314 0.0033294298 0.1451893 0.054966524 0.10551428
-0.051614653 0.021199526 -0.071614236 0.034312017 -0.024956217 -0.027240396 0.027820028 -0.097222224
-0.01634945 -0.049673382 -0.0014334684 0.016409095 -0.04523111 0.0057255123 -0.04644849 0.033024594
0.064966716 0.10009242 -0.05679337 0.019772394 -0.0059484155 -0.005391924 0.046764705 -0.064996704
-0.01881283 0.078327805 -0.019930094 -0.024814263 0.01992811 0.0071746064 -0.020992493 0.012124488
-0.014171917 -0.03974291 -0.043970175 0.031931795 0.021930404 0.002263682 -0.009585973 -0.005288299
-0.015069354 -0.011060908 0.03668998 0.057291016 0.008631304 -0.005990876 -0.028905015 0.052493185
0.016684478 -0.021485656 -0.031875387 -0.032871414 0.020458482 0.005418483 0.074012734 0.02245404
0.011085941 -0.010487325 -0.007243008 0.022988219 -0.04708239 -0.0742112 -0.00071689987 0.020984765
-0.048097316 -0.05223653 -0.019285345 -0.00092960906 0.021739056 -0.01699066 -0.0117905475 -0.028385015
0.016986297 0.06933347 0.013113868 -0.042298086 0.04538071 -0.022070821 -0.026185343 -0.009944795
0.02235993 -0.025242075 0.091056965 0.055381764 -0.003071388 -0.082939066 -0.00444276 0.05035703
0.066885665 -0.022153791 -0.0014631482 -0.04512583 -0.06337622 0.045121443 0.06259331 0.013524285
0.010616032 0.05668729 -0.03454515 -0.11942959 0.016085567 -0.008943912 0.07722008 0.034955937
0.05886878 -0.08191353 0.015979318 0.04137194 -0.067352906 -0.037438307 0.012245704 0.05457075
-0.062537365 -0.081317745 0.016328543 -0.034781072 -0.0426711 -0.016509444 0.091945544 -0.014451199
-0.008000461 0.01641578 0.046768475 -0.03891044 -0.03936364 -0.020022158 -0.023241697 0.012152395
-0.008729715 -0.051852554 -0.02711138 -0.04305975 -0.013474536 -0.029450282 -0.010516535 -0.034511674
-0.018007342 -0.018170554 0.025613729 -0.02719904 -0.024727814 -0.017571839 -0.015641415 0.0032273591
0.05389823 0.06653319 -0.011874842 -0.07951838 -0.07927105 0.03481211 -0.0046377527 -0.020934459
0.029056663 -0.104237646 0.04014809 -0.046522524 0.021548735 -0.0149451485 0.07759108 -0.033076137
0.0065412982 0.0027700262 0.017630018 0.018582879 -0.007483089 -0.046475817 0.014207135 -0.033000562
0.022291936 0.07154918 -0.018586457 -0.043723296 0.013869938 0.0050074104 0.03940613 -0.034887485
0.023380121 -0.047458168 -0.055219192 -0.0016935494 0.0034944154 0.004687469 -0.02143059 -0.00043439015
-0.017950315 0.08613497 0.008347463 0.00084626675 0.13227402 -0.004653347 -0.01449989 0.004134309
0.006906591 -0.008451694 0.072872885 0.008864204 -0.018442273 0.014561108 0.06554421 -0.04377574
-0.007037232 -0.05319048 -0.052541293 -0.034755632 -0.016660282 0.03676347 -0.01776074 -0.0867662
-0.076668404 -0.11355338 0.12346335 -0.007883632 -0.106064394 0.010087004 0.03498002 0.013658878
0.022972941 0.06672427 -0.031515095 0.0077236574 -0.032354675 0.0575022 0.060203407 -0.041273892
-0.03344045 0.12676401 -0.043259725 -0.0071145673 0.038984504 -0.062984616 0.09301707 0.0091265775
0.009385108 -0.06864214 -0.077732936 0.08187856 0.039225157 0.015433844 -0.06848871 0.00912557
00000000: ca22 023c 8f51 0bbc f9d7 e33c 8ead 823c
00000010: f495 893d 3c93 543c 4cec cb3d 792d 823d
00000020: 69d8 12bc beb3 c13c 9a26 57bd f870 3dbd
00000030: 9032 5a3b 81ac 143e 9424 613d df17 d83d
00000040: e369 53bd a1aa ad3c 7caa 92bd c28a 0c3d
00000050: fb70 ccbc 4027 dfbc d4e6 e33c 721c c7bd
00000060: 48ef 85bc 5176 4bbd 38e3 bbba 5e6c 863c
00000070: 4244 39bd 149d bb3b c640 3ebd cc44 073d
00000080: 450d 853d 41fd cc3d 2aa0 68bd b7f9 a13c
00000090: edea c2bb bdae b0bb 598c 3f3d fe1c 85bd
000000a0: 5d1d 9abc 546a a03d 7044 a3bc 4847 cbbc
000000b0: 4740 a33c f618 eb3b 73f8 abbc caa5 463c
000000c0: 5431 68bc 76c9 22bd 121a 34bd eaca 023d
000000d0: 64a7 b33c 485a 143b 7c0e 1dbc 7849 adbb
000000e0: 74e5 76bc d038 35bc 3c48 163d fca9 6a3d
000000f0: 506a 0d3c 1c4f c4bb 36ca ecbc 1803 573d
00000100: e3ad 883c b002 b0bc c48f 02bd 2da4 06bd
00000110: 8c98 a73c 888d b13b fd93 973d 89f1 b73c
00000120: cfa1 353c 07d3 2bbc c156 edbb ca51 bc3c
00000130: 77d9 40bd 0bfc 97bd 56ee 3bba 3ee8 ab3c
00000140: b101 45bd f9f5 55bd 4dfc 9dbc 02b1 73ba
00000150: 1b16 b23c ff2f 8bbc 242d 41bc b187 e8bc
00000160: d926 8b3c b5fe 8d3d 8ddb 563c c240 2dbd
00000170: 20e1 393d decd b4bc a582 d6bc 7eef 22bc
00000180: 2c2c b73c 78c8 cebc 137c ba3d fdd7 623d
00000190: 5749 49bb f5db a9bd 9294 91bb 2c43 4e3d
000001a0: 5afb 883d de7b b5bc 1bc7 bfba ddd5 38bd
000001b0: 64cb 81bd 43d1 383d ec30 803d f694 5d3c
000001c0: deee 2d3c ef30 683d 377f 0dbd 8097 f4bd
000001d0: e1c5 833c 7c89 12bc 9025 9e3d f52d 0f3d
000001e0: 6420 713d 48c2 a7bd 0fe7 823c a075 293d
000001f0: 52f0 89bd e958 19bd 35a2 483c 9485 5f3d
00000200: 9713 80bd eb89 a6bd 70c3 853c 9976 0ebd
00000210: e4c7 2ebd d03e 87bc f24d bc3d b9c4 6cbc
00000220: 5e14 03bc 637a 863c 4d90 3f3d 8e60 1fbd
00000230: c53b 21bd 8205 a4bc 5f65 bebc d71a 473c
00000240: 1407 0fbc 5863 54bd af18 debc 6c5f 30bd
00000250: 4dc4 5cbc b841 f1bc 8b4d 2cbc 1d5c 0dbd
00000260: 2284 93bc 6ada 94bc e2d3 d13c 85d0 debc
00000270: fc91 cabc d1f2 8fbc 6d22 80bc 1a82 533b
00000280: 64c4 5c3d 8e42 883d b38e 42bc 88da a2bd
00000290: dc58 a2bd 2597 0e3d 4af8 97bb be7e abbc
000002a0: 3d08 ee3c 8c7a d5bd 5372 243d 678e 3ebd
000002b0: f986 b03c 7fdc 74bc 12e8 9e3d d87a 07bd
000002c0: 6358 d63b 5489 353b d46c 903c 1f3b 983c
000002d0: b334 f5bb 6d5d 3ebd 0bc5 683c 992b 07bd
000002e0: 949d b63c 6088 923d a042 98bc 3317 33bd
000002f0: bd3e 633c 3415 a43b 5268 213d 2ee6 0ebd
00000300: ab87 bf3c 7f63 42bd 852d 62bd 17fa ddba
00000310: 9002 653b 5799 993b 348f afbc dcbe e3b9
00000320: 8a0c 93bc 8867 b03d ccc3 083c 00d8 5d3a
00000330: d772 073e 1b7b 98bb f290 6dbc 1979 873b
00000340: af50 e23b f978 0abc 613e 953d 2b3b 113c
00000350: 4014 97bc b791 6e3c 0b3c 863d 314e 33bd
00000360: 9598 e6bb 43de 59bd 8a35 57bd ec5b 0ebd
00000370: 257b 88bc 4b95 163d f97e 91bc 7ab2 b1bd
00000380: 5304 9dbd ad8e e8bd 5ada fc3d 592a 01bc
00000390: 4a38 d9bd f643 253c 3647 0f3d 7dc9 5f3c
000003a0: c031 bc3c bca6 883d f915 01bd bc16 fd3b
000003b0: 5686 04bd 6d87 6b3d d997 763d d00e 29bd
000003c0: daf8 08bd 6dce 013e 1c31 31bd 5121 e9bb
000003d0: 37ae 1f3d 14fe 80bd bc7f be3d a487 153c
000003e0: ffc3 193c 4094 8cbd 7232 9fbd f2af a73d
000003f0: 8faa 203d 3cde 7c3c cf43 8cbd 6a83 153c
